best_model.pth (torch, 114997 bytes, 9 tensors)

network.0.weight f4 [128, 5]
0.018312555 -0.19538942 0.1630614 0.37322518 -0.0009099213 -0.07900533 0.24402425 0.42264363
0.020337472 -0.3234693 -0.43559536 -0.09639297 0.31391594 -0.20131792 0.1798912 -0.17524554
0.17331015 0.14347552 0.19964641 0.13292983 -0.2586381 0.05174876 0.11738484 0.100967206
-0.2237817 0.12164886 -0.15475695 0.2505278 0.26076332 0.35242987 -0.28751022 0.2402706
-0.08785012 -0.032809194 0.04506792 -0.23670287 -0.016277108 -0.09733181 -0.30591232 -0.3724199
-0.38064224 0.3098265 -0.11586732 0.13501322 -0.2757854 -0.051776078 0.041609224 0.21884888
-0.37161532 0.34639558 -0.03133225 -0.32803693 0.25845 0.342305 0.04036432 0.04493928
0.31375593 0.15133165 -0.35798216 0.33753592 0.28257555 0.059041884 0.20352875 0.013949529
0.416718 -0.008812393 0.049512815 0.14366041 -0.20232563 -0.17614053 0.114281386 0.2499622
0.2308182 -0.07770844 0.067249626 0.12862255 0.35643274 0.16114013 -0.0851063 0.3239912
0.0388164 -0.28568548 0.27102196 0.09715627 0.32668686 0.23299876 0.092315346 0.20585613
0.059393205 0.22853963 -0.07324733 -0.3429243 -0.16970846 0.07903431 0.2032348 0.003663441
-0.30119452 0.48955625 0.27533266 -0.16846655 0.21497126 0.09901208 -0.3167479 -0.043044016
-0.14735387 -0.09459756 -0.047220536 -0.22753435 -0.1038694 0.26331523 0.14003678 0.101326555
0.2670495 0.06330051 0.28403994 -0.17692842 -0.15612331 0.0432776 0.3250471 0.10086781
-0.04090992 0.11098641 -0.046766836 -0.42707574 0.49992335 0.10850162 -0.012050975 -0.14766432
0.072738856 -0.12719625 0.22686645 0.035980783 -0.011367977 0.23635094 0.101044714 0.42590308
0.12165555 -0.22920322 -0.23151094 0.04650466 -0.061109576 -0.08012723 -0.06867717 -0.30668554
0.11199559 -0.44395736 -0.082648315 -0.03207372 -0.37991464 -0.18795574 -0.26118216 0.13979858
0.45526972 -0.22369015 -0.3122811 0.081286594 -0.1129458 0.453124 0.11800729 0.10209542
0.11871275 -0.15062965 0.15207313 -0.009705898 0.12650917 -0.3969044 -0.31954274 -0.29185468
-0.3710531 0.26772365 0.08714779 -0.2759557 -0.14439942 -0.5025973 -0.30164653 -0.3175902
0.057015028 0.13807493 0.45329347 -0.014473103 0.0029094731 -0.26126048 0.124508575 -0.050407443
0.2945731 -0.14886032 0.09947261 0.32271886 0.051678587 0.0020538636 -0.39432096 -0.2038324
0.05357906 0.090446554 0.30827945 0.35222661 -0.18403508 -0.3498719 0.08194409 -0.3302831
0.05132392 -0.09222655 0.21447094 -0.12962136 -0.07095018 -0.14991847 -0.3150379 -0.10845747
0.23668748 -0.22988877 0.09701275 -0.12939905 0.42261577 0.2356754 0.090314634 0.25320038
0.00769857 -0.08040873 -0.14713082 0.33134478 -0.1050241 0.011145823 -0.3038306 -0.23822871
0.3888649 0.27201626 0.10954479 -0.1391475 0.0831025 0.23188262 0.036090277 -0.0954961
0.4189014 0.07663892 -0.26991293 -0.19311658 0.09838424 0.23546925 0.07443539 0.060277697
-0.37374276 -0.06564357 0.19814089 -0.15880573 -0.19569682 0.19392802 -0.0130415205 -0.020724298
-0.052475598 0.018131068 0.08339493 -0.42155066 0.37915495 0.11138915 0.32453158 0.2909973
00000000: 3604 963c 2a14 48be 91f9 263e 5f17 bf3e
00000010: c987 6eba 8ccd a1bd 7ee1 793e bf64 d83e
00000020: c59a a63c c59d a5be 5b06 dfbe ad69 c5bd
00000030: 97b9 a03e 4926 4ebe 6635 383e 9173 33be
00000040: 3778 313e 3feb 123e 1c70 4c3e c21e 083e
00000050: 376c 84be 82f6 533d 7767 f03d e5c7 ce3d
00000060: 0827 65be 0a23 f93d 9b78 1ebe 2e45 803e
00000070: c582 853e b071 b43e 8a34 93be 7f09 763e
00000080: c4ea b3bd ef62 06bd 2499 383d 3d62 72be
00000090: 9257 85bc e655 c7bd 8aa0 9cbe d2ad bebe
000000a0: 8ae3 c2be 94a1 9e3e d84b edbd e840 0a3e
000000b0: be33 8dbe 2713 54bd 6f6e 2a3d ec19 603e
000000c0: 5d44 bebe c35a b13e 3f56 00bd 75f4 a7be
000000d0: 8f53 843e 9a42 af3e 0f55 253d 4012 383d
000000e0: 9ea4 a03e aff6 1a3e 7049 b7be 82d1 ac3e
000000f0: bead 903e e7d5 713d d769 503e 918c 643c
00000100: 105c d53e db61 10bc f3cd 4a3d b71b 133e
00000110: 732e 4fbe 2f5e 34be 5c0c ea3d 17f6 7f3e
00000120: 9b5b 6c3e 9a25 9fbd 2cba 893d a1b5 033e
00000130: 5a7e b63e eb01 253e 364c aebd 2de2 a53e
00000140: f2fd 1e3d 5e45 92be 64c3 8a3e def9 c63d
00000150: 8043 a73e 3a97 6e3e d40f bd3d f3cb 523e
00000160: 4a46 733d 4b06 6a3e b202 96bd c693 afbe
00000170: 0ec8 2dbe bedc a13d c91c 503e 5716 703b
00000180: 2b36 9abe 1ea7 fa3e 67f8 8c3e 7f82 2cbe
00000190: 6d21 5c3e d8c6 ca3d c82c a2be ec4e 30bd
000001a0: efe3 16be 5ebc c1bd 526a 41bd c4fe 68be
000001b0: 7bb9 d4bd 41d1 863e cd65 0f3e 4c84 cf3d
000001c0: b6ba 883e b3a3 813d af6d 913e b92c 35be
000001d0: cade 1fbe da43 313d 936c a63e c893 ce3d
000001e0: 2991 27bd d84c e33d 958e 3fbd aca9 dabe
000001f0: f4f5 ff3e 1936 de3d 7471 45bc 5135 17be
00000200: 1cf8 943d bc3f 02be ae4f 683e 9660 133d
00000210: c040 3abc fb05 723e 88f0 ce3d f80f da3e
00000220: 8c26 f93d 40b4 6abe 3411 6dbe ac7b 3e3d
00000230: 094e 7abd bf19 a4bd 9ea6 8cbd e305 9dbe
00000240: f25d e53d 614e e3be 8543 a9bd bc5f 03bd
00000250: 2c84 c2be 7877 40be abb9 85be 5c27 0f3e
00000260: 1d19 e93e 080f 65be 4fe3 9fbe 9679 a63d
00000270: 2150 e7bd deff e73e cead f13d 6717 d13d
00000280: ac1f f33d a93e 1abe 0fb9 1b3e 7d05 1fbc
00000290: 9f8b 013e 0e37 cbbe 1b9b a3be fa6d 95be
000002a0: acfa bdbe 1313 893e 8a7a b23d 114a 8dbe
000002b0: 71dd 13be 37aa 00bf 6a71 9abe 2f9b a2be
000002c0: 9788 693d 8463 0d3e 1516 e83e 9820 6dbc
000002d0: dcac 3e3b efc3 85be 5afe fe3d 0978 4ebd
000002e0: 49d2 963e d76e 18be 4cb8 cb3d 683b a53e
000002f0: edac 533d 1d9a 063b 70e4 c9be 71b9 50be
00000300: b775 5b3d 0b3c b93d ced6 9d3e 0c57 b43e
00000310: b173 3cbe 6922 b3be 4ed2 a73d de1a a9be
00000320: 0839 523d 46e1 bcbd 459e 5b3e 76bb 04be
00000330: 544e 91bd 3a84 19be a64c a1be f31e debd
00000340: 345e 723e f667 6bbe 9fae c63d 2f81 04be
00000350: 1861 d83e e454 713e e1f6 b83d 7ba3 813e
00000360: 4944 fc3b 55ad a4bd 76a9 16be 06a6 a93e
00000370: e016 d7bd f89c 363c af8f 9bbe 3af2 73be
00000380: 4d19 c73e b745 8b3e 0559 e03d af7c 0ebe
00000390: a531 aa3d a372 6d3e 66d3 133d 7693 c3bd
000003a0: 3f7a d63e def4 9c3d 0732 8abe 5ac0 45be
000003b0: ad7d c93d da1e 713e 9571 983d bfe5 763d
000003c0: 365b bfbe 2370 86bd 72e5 4a3e f89d 22be
000003d0: bf64 48be 1195 463e 1aac 55bc 01c6 a9bc
000003e0: a7f0 56bd 9b87 943c f6ca aa3d 7dd5 d7be
000003f0: 9920 c23e ff1f e43d 0129 a63e 99fd 943e

network.0.bias f4 [128]
0.011068287 0.05728136 -0.412861 0.13029799 0.04420944 -0.37393132 -0.412582 -0.5355036
-0.069291644 0.24465239 -0.2429959 0.025767867 -0.34757993 0.14101762 -0.47280896 0.26577878
-0.07629729 -0.44345024 -0.04989467 0.0873286 -0.04156537 -0.44359764 0.042346686 0.31172737
-0.018159365 -0.1925949 -0.093516976 0.37153542 0.31664225 -0.14284825 0.28235748 0.23226957
-0.075877905 -0.044797778 0.07902601 -0.29899526 -0.32615855 -0.22607774 -0.31760612 -0.3687663
0.23835483 -0.15153944 0.28143886 -0.3581193 -0.19006616 0.23556381 -0.123152465 -0.10390053
0.318391 -0.2205471 -0.42584562 -0.10613228 -0.12560895 -0.021571454 0.13612801 -0.1433983
-0.13172987 -0.4710523 -0.46124783 -0.07627366 0.08296313 0.15513085 0.0999027 0.053873863
-0.23777692 -0.44156104 -0.06989699 -0.28842476 0.16524403 -0.37522262 -0.333465 -0.13820569
0.07628934 0.21269898 -0.38711596 -0.3254441 0.27319714 0.24281 0.12964405 -0.04462104
-0.41676918 -0.4254794 0.0681489 -0.45549053 -0.29617396 -0.35722765 0.29771912 0.12349492
-0.29912582 -0.54185677 -0.39902994 -0.34541535 -0.15133369 0.31725672 -0.37550616 -0.3371943
-0.015551924 0.33151063 0.1928237 -0.2253137 -0.13671918 0.1985529 -0.012179415 0.119224645
-0.29475635 -0.4963881 0.014485286 -0.29521307 -0.30437323 0.19348353 -0.27870178 0.29890692
0.12985791 -0.43587917 0.14667785 -0.31664127 -0.16454095 0.2366737 0.22328785 0.12765701
0.19929604 0.2851622 0.21077912 0.26948115 -0.123482384 -0.35488632 -0.112375766 -0.43324554
00000000: c357 353c dc9f 6a3d 8462 d3be d66c 053e
00000010: f514 353d ed73 bfbe f33d d3be c416 09bf
00000020: c7e8 8dbd 2886 7a3e ebd3 78be 2217 d33c
00000030: fff5 b1be ec66 103e 0414 f2be 2814 883e
00000040: c141 9cbd e90b e3be 5a5e 4cbd 56d9 b23d
00000050: 7340 2abd 3b1f e3be b873 2d3d bb9a 9f3e
00000060: f3c2 94bc 9937 45be d485 bfbd e439 be3e
00000070: ef1e a23e d046 12be 2991 903e 13d8 6d3e
00000080: e065 9bbd e07d 37bd 64d8 a13d e815 99be
00000090: 41fe a6be ec80 67be 459d a2be f0ce bcbe
000000a0: 4a13 743e 282d 1bbe c118 903e 6a5b b7be
000000b0: b4a0 42be a437 713e 5c37 fcbd cdc9 d4bd
000000c0: 2504 a33e 19d7 61be 7008 dabe e15b d9bd
000000d0: a29f 00be 9eb6 b0bc 2465 0b3e 01d7 12be
000000e0: 32e4 06be c42d f1be ad28 ecbe 5d35 9cbd
000000f0: 93e8 a93d 9fda 1e3e c999 cc3d d7aa 5c3d
00000100: cb7b 73be 4a14 e2be 2726 8fbd 69ac 93be
00000110: bb35 293e 2e1d c0be edbb aabe cb85 0dbe
00000120: 963d 9c3d c3cd 593e 1034 c6be 9ca0 a6be
00000130: 7fe0 8b3e 2fa3 783e 69c1 043e 8dc4 36bd
00000140: c562 d5be 70d8 d9be a791 8b3d 0e36 e9be
00000150: 1da4 97be 8be6 b6be a46e 983e e8ea fc3d
00000160: 0527 99be 20b7 0abf a74d ccbe 48da b0be
00000170: 38f7 1abe 796f a23e 5842 c0be bba4 acbe
00000180: 7fcd 7ebc c3bb a93e 9373 453e a2b8 66be
00000190: 1d00 0cbe 7451 4b3e 2b8c 47bc 0d2c f43d
000001a0: 4eea 96be 9526 febe b153 6d3c 2b26 97be
000001b0: cfd6 9bbe 8c20 463e 00b2 8ebe 540a 993e
000001c0: 79f9 043e 8e2b dfbe b832 163e ce1e a2be
000001d0: 6c7d 28be 975a 723e 92a5 643e 85b8 023e
000001e0: 4314 4c3e c800 923e 7bd6 573e 6ff9 893e
000001f0: 55e4 fcbd a9b3 b5be 4425 e6bd 5cd2 ddbe

network.3.weight f4 [128, 128]
0.032770738 0.07445188 -0.05768445 -0.096029386 -0.015506191 -0.11979854 -0.027465902 0.1949769
-0.07231161 0.06745681 0.029168643 -0.1317548 0.081127964 0.11885984 0.07347754 -0.031907704
0.0155305145 0.037473876 0.15440466 -0.01453369 0.02116302 -0.001834765 -0.034036063 -0.16697162
-0.04894651 -0.1695308 -0.09893191 0.009515526 0.12087702 0.053497557 0.16017598 -0.065437205
0.07157966 0.09506375 0.014415203 -0.14753214 0.0752508 -0.14317854 -0.0361578 -0.18389197
0.059669822 0.00087461085 0.0656818 0.11408782 0.024076855 -0.026893876 -0.07318621 -0.01428647
0.06281373 -0.006731153 0.004360965 -0.092233256 0.09731764 0.07880325 0.050837595 0.01760612
-0.026995845 -0.19906467 -0.108295776 0.033976305 0.023306258 0.07305165 0.017014055 -0.047168475
-0.017489668 0.10236021 -0.036925197 -0.09528568 0.05909533 -0.10990692 -0.03610692 -0.06541445
0.00096278865 -0.019576812 0.04225888 0.025345786 0.04803295 -0.014496784 0.15446189 -0.077900134
-0.17172399 0.00050272665 -0.108095355 -0.14107446 0.06966315 0.017720671 -0.080351315 -0.06481225
-0.037531003 -0.10885565 0.037608325 -0.08487313 -0.074073434 0.12164436 -0.15261425 0.109586865
-0.064061 0.09664418 -0.13233125 -0.04529895 0.0033813298 -0.11843507 0.023196518 0.0732398
-0.16988488 0.024678435 -0.08065481 -0.041756004 0.013835871 -0.09620896 0.08668587 0.08908241
-0.020461606 0.083762586 -0.06860834 -0.06661044 -0.05060072 -0.038960617 0.02983114 0.03665706
0.0019000947 -0.002256705 0.11111487 0.08955784 0.07000957 -0.079898246 -0.036321737 -0.072068796
-0.000898993 0.054653913 -0.132025 -0.025954876 -0.10285826 0.03739471 -0.01743721 -0.093364306
0.034818195 -0.08807141 0.12070936 -0.14767674 -0.08939255 0.01804462 -0.043242708 -0.051340844
0.09658037 -0.0037821145 0.043241102 0.08783298 -0.11583555 -0.036611747 -0.014630844 0.009596788
-0.03738375 -0.0023757312 0.06968622 -0.0910448 -0.2088205 -0.1012376 -0.0047339294 0.052474458
-0.07312786 -0.11417066 -0.06884368 -0.038613416 -0.17722093 -0.07267563 0.013756779 -0.049569134
0.015097586 0.004640767 0.081133395 0.011196127 -0.10264527 0.018577913 -0.032537602 -0.020919543
-0.04961303 0.031458188 -0.00973665 -0.071283035 -0.03257909 -0.091563 -0.10112117 0.07211459
-0.16382293 0.1487843 -0.11539387 -0.029473431 0.0036999676 -0.17868751 -0.11000469 -0.027253633
-0.08523858 0.061272394 0.05945014 -0.088245906 0.08761834 0.039785326 -0.13365127 0.020867541
-0.09331107 -0.0041010827 -0.16741449 -0.15472977 -0.15663242 -0.023221212 -0.13277505 -0.13049665
0.021385813 0.014153715 -0.059766848 0.017388074 -0.21813475 0.03393405 -0.029446295 0.03295539
0.145511 -0.1583935 -0.06045898 -0.06617749 0.03201087 0.022727888 0.07907289 -0.13810569
-0.114284426 -0.05611858 0.15842931 -0.025165532 -0.13917391 -0.03949957 -0.04352612 0.03410529
-0.078102194 -0.09398868 -0.05551063 -0.265513 -0.05837977 0.098263346 -0.2037363 -0.18513708
-0.1814221 -0.19856545 0.097687654 -0.077868596 0.057995453 0.0066973506 -0.077075526 0.09999755
-0.022355303 -0.08550813 -0.10112686 -0.028873095 0.033842113 -0.09138819 0.089692414 -0.07084421
00000000: 9c3a 063d 3a7a 983d 8846 6cbd 0eab c4bd
00000010: ae0d 7ebc f058 f5bd 2c00 e1bc 06a8 473e
00000020: 1c18 94bd cc26 8a3d 14f3 ee3c bbea 06be
00000030: 6b26 a63d ca6c f33d 647b 963d a7b1 02bd
00000040: b373 7e3c 357e 193d 411c 1e3e b71e 6ebc
00000050: 125e ad3c 7f7c f0ba 6669 0bbd 9cfa 2abe
00000060: 237c 48bd 7b99 2dbe d09c cabd 02e7 1b3c
00000070: 5f8e f73d 4120 5b3d 2c05 243e f103 86bd
00000080: 5b98 923d c9b0 c23d be2d 6c3c aa12 17be
00000090: 171d 9a3d 659d 12be 341a 14bd 2d4e 3cbe
000000a0: 5868 743d 2446 653a 2e84 863d e0a6 e93d
000000b0: d33c c53c 8c50 dcbc a7e2 95bd cc11 6abc
000000c0: 7ca4 803d 0191 dcbb 6de6 8e3b cae4 bcbd
000000d0: 794e c73d 9963 a13d 153b 503d b63a 903c
000000e0: 6426 ddbc 9cd7 4bbe 2dca ddbd bd2a 0b3d
000000f0: c4ec be3c 1a9c 953d 0f61 8b3c bb33 41bd
00000100: 7e46 8fbc 3ba2 d13d e03e 17bd 2325 c3bd
00000110: f20d 723d e116 e1bd dae4 13bd 03f8 85bd
00000120: a763 7c3a 8d5f a0bc a617 2d3d f7a1 cf3c
00000130: 33be 443d eb83 6dbc 422b 1e3e 1b8a 9fbd
00000140: 6ad8 2fbe 6ac9 033a 1961 ddbd d375 10be
00000150: 8eab 8e3d f12a 913c 3b8f a4bd 49bc 84bd
00000160: 1cba 19bd b6ef debd 300b 1a3d f7d1 adbd
00000170: d0b3 97bd ae20 f93d e946 1cbe 146f e03d
00000180: 6a32 83bd 62ed c53d d881 07be 648b 39bd
00000190: 4d99 5d3b 168e f2bd a006 be3c c0fe 953d
000001a0: 4df6 2dbe 6e2a ca3c 592e a5bd 5808 2bbd
000001b0: d9af 623c 3409 c5bd 5d88 b13d d770 b63d
000001c0: 199f a7bc b88b ab3d 8882 8cbd 0e6b 88bd
000001d0: b342 4fbd 2b95 1fbd 6f60 f43c b725 163d
000001e0: 990c f93a 3ae5 13bb 3190 e33d 1a6a b73d
000001f0: 2d61 8f3d b1a1 a3bd 1ac6 14bd ce98 93bd
00000200: 66aa 6bba c8dc 5f3d 9031 07be 529f d4bc
00000210: 5aa7 d2bd 322b 193d 7bd8 8ebc c935 bfbd
00000220: 869d 0e3d c95e b4bd 7836 f73d 9238 17be
00000230: 7113 b7bd 50d2 933c 441f 31bd c74a 52bd
00000240: eecb c53d 5add 77bb 951d 313d c7e1 b33d
00000250: 303b edbd 33f6 15bd 35b6 6fbc d93b 1d3c
00000260: b41f 19bd 28b2 1bbb a6b7 8e3d b275 babd
00000270: 0bd5 55be a955 cfbd 141f 9bbb 75ef 563d
00000280: 0fc4 95bd 4fd2 e9bd eafd 8cbd 1a29 1ebd
00000290: 6779 35be f6d6 94bd 1d64 613c 0109 4bbd
000002a0: de5b 773c 9311 983b 4429 a63d f66f 373c
000002b0: af37 d2bd b530 983c 2646 05bd 765f abbc
000002c0: 0837 4bbd 4dda 003d 7886 1fbc d7fc 91bd
000002d0: a771 05bd 6285 bbbd 9e18 cfbd d0b0 933d
000002e0: 33c1 27be e95a 183e 9f53 ecbd 4472 f1bc
000002f0: 287b 723b dcf9 36be 244a e1bd 0343 dfbc
00000300: 9191 aebd c3f8 7a3d fd81 733d 45ba b4bd
00000310: 3f71 b33d f0f5 223d e1db 08be 68f2 aa3c
00000320: e019 bfbd 6062 86bb b46e 2bbe 7b71 1ebe
00000330: 4064 20be 693a bebc 2ff6 07be eaa0 05be
00000340: 4d31 af3c fce4 673c 15ce 74bd 6f71 8e3c
00000350: b75e 5fbe 6efe 0a3d 5b39 f1bc 3bfc 063d
00000360: d600 153e e831 22be d6a3 77bd 1088 87bd
00000370: d41d 033d d62f ba3c f8f0 a13d 946b 0dbe
00000380: f40d eabd 99dc 65bd 4b3b 223e f227 cebc
00000390: 9b83 0ebe 4dca 21bd 7248 32bd fdb1 0b3d
000003a0: 0bf4 9fbd 237d c0bd 1d5f 63bd 52f1 87be
000003b0: a01f 6fbd 4b3e c93d 40a0 50be 9394 3dbe
000003c0: b7c6 39be be54 4bbe 7710 c83d 9279 9fbd
000003d0: a48c 6d3d 7375 db3b c6d9 9dbd 84cb cc3d
000003e0: 7822 b7bc e31e afbd 991b cfbd 4587 ecbc
000003f0: 079e 0a3d bb29 bbbd a8b0 b73d c516 91bd

network.3.bias f4 [128]
-0.016180502 0.027116232 0.002658263 -0.05141676 0.017497486 0.018945161 -0.070108496 -0.040561765
-0.08373461 -0.13182178 0.0033358643 -0.03823243 -0.08807844 -0.06467596 -0.035371754 -0.0069058286
-0.005895873 -0.0623267 0.013229978 -0.0018904262 -0.02695958 0.006866675 -0.054034803 -0.0929056
-0.07646512 0.0062223673 0.013401024 0.0049707987 -0.0336134 -0.06134911 -0.084846206 -0.11337576
-0.01110608 0.0069136145 -0.029389575 -0.064052954 -0.05387015 -0.09217794 0.04437038 -0.07064373
-0.006137402 -0.070797816 -0.06017306 0.03531237 -0.105984636 -0.09457366 -0.1125274 -0.073063396
-0.06906255 0.03657881 -0.10976958 -0.08097615 -0.10991424 -0.10022667 -0.03964 0.030569416
-0.055235136 -0.12258235 -0.03518049 0.0061320704 0.0112267155 -0.04823315 0.015707115 0.041816402
-0.09106378 -0.05475078 -0.1164483 0.038427286 0.0059787394 -0.08793213 -0.08413038 -0.03659646
0.0055370796 0.011821301 -0.08300269 0.0019704215 0.021199597 -0.1031582 -0.09330603 -0.00088321976
0.022330359 0.041991502 0.00888962 -0.02285281 -0.12296544 -0.102095924 -0.028536288 -0.014432175
0.03256353 0.010954166 -0.08053443 -0.0073516374 -0.09172976 -0.048181 0.011186312 -0.13718013
-0.09530653 -0.052820493 -0.051788356 0.11799208 -0.10688828 -0.12741512 -0.12128472 -0.008285586
-0.08474243 -0.019825833 -0.10202032 -0.02717941 0.010346926 -0.12202438 0.031417314 0.018028686
-0.03287426 -0.04771152 -0.08651049 -0.09274059 0.005652847 -0.026220052 -0.019708065 -0.121004336
-0.010610024 -0.033224802 0.00011306051 -0.019595226 0.10159526 -0.029953294 -0.124195494 -0.068615556
00000000: f98c 84bc dc22 de3c 4136 2e3b 619a 52bd
00000010: e356 8f3c e232 9b3c 0b95 8fbd 1824 26bd
00000020: 0d7d abbd 4afc 06be 849e 5a3b 9c99 1cbd
00000030: 7862 b4bd d474 84bd f9e1 10bd 4a4a e2bb
00000040: 2b32 c1bb 484a 7fbd 8dc2 583c 2dc8 f7ba
00000050: 56da dcbc d801 e13b 9953 5dbd 4b45 bebd
00000060: bf99 9cbd 00e5 cb3b f88f 5b3c 15e2 a23b
00000070: 34ae 09bd 3449 7bbd d9c3 adbd 8d31 e8bd
00000080: 47f6 35bc 9a8b e23b 68c2 f0bc 322e 83bd
00000090: f2a6 5cbd cac7 bcbd b7bd 353d a9ad 90bd
000000a0: 421c c9bb 72fe 90bd 0778 76bd b4a3 103d
000000b0: 790e d9bd d6af c1bd c474 e6bd 43a2 95bd
000000c0: ab70 8dbd aad3 153d e0ce e0bd d3d6 a5bd
000000d0: b81a e1bd a443 cdbd 8d5d 22bd b66c fa3c
000000e0: 3d3e 62bd 750c fbbd 6b19 10bd 89ef c83b
000000f0: 42f0 373c 2090 45bd 35ac 803c ad47 2b3d
00000100: a67f babd 5b42 60bd 727c eebd ee65 1d3d
00000110: 4de9 c33b c315 b4bd 8c4c acbd 2be6 15bd
00000120: 6470 b53b 21ae 413c 50fd a9bd 3022 013b
00000130: c7aa ad3c 9b44 d3bd 3b17 bfbd e087 67ba
00000140: 28ee b63c 48ff 2b3d c5a5 113c d135 bbbc
00000150: 4ed5 fbbd ab17 d1bd efc4 e9bc ee74 6cbc
00000160: 5661 053d 1a79 333c 3cef a4bd 01e6 f0bb
00000170: d0dc bbbd 7159 45bd cb46 373c f378 0cbe
00000180: 1230 c3bd 4d5a 58bd 0720 54bd d5a5 f13d
00000190: 3ee8 dabd 1c79 02be 2064 f8bd 44c0 07bc
000001a0: 708d adbd c969 a2bc 08f0 d0bd 5ba7 debc
000001b0: 2786 293c ebe7 f9bd 71af 003d e5b0 933c
000001c0: 29a7 06bd 286d 43bd 692c b1bd c7ee bdbd
000001d0: 843b b93b 6fcb d6bc cf72 a1bc 1fd1 f7bd
000001e0: abd5 2dbc bb16 08bd e61a ed38 2b86 a0bc
000001f0: 2d11 d03d 9c60 f5bc 355a febd 5086 8cbd

network.6.weight f4 [64, 128]
0.052121695 0.016201474 -0.060443427 0.010637018 0.034831114 -0.020941015 0.023397345 0.014154893
0.031353086 0.08608067 0.034384564 -0.004379014 -0.06578295 -0.006139023 -0.09014448 -0.03524208
-0.015072834 0.0091247605 -0.0779774 0.010263543 -0.010534888 -0.014720601 -0.044751525 0.04227438
-0.057308935 -0.015547591 -0.0015047594 -0.052240025 0.03212984 0.0025672058 0.023160448 0.03538612
-0.054942332 -0.03141451 0.018694093 -0.043083977 -0.010897589 0.05842315 -0.022766255 0.047573775
0.033156425 -0.061504602 -0.060789485 0.056152947 -0.074882425 0.037774153 0.0076680765 -0.037421398
0.041995276 -0.105344765 0.0354039 0.018051844 -0.021176752 0.050584063 0.04432652 0.016598336
0.0773021 0.070308454 -0.0010260433 -0.06523979 0.032281216 -0.078754544 -0.059100155 -0.027413407
0.022558225 -0.046098948 0.042277336 -0.05679616 -6.4463035e-05 -0.08786588 -0.03291037 -0.15433733
-0.027512956 0.054516863 0.029109098 0.029160876 -0.046190068 0.047266264 -0.05367996 0.089677066
0.08377415 -0.056024663 -0.033574305 0.0034180793 0.0353935 0.020477979 -0.06841596 -0.09682729
0.0516455 0.04506365 -0.12280008 -0.010246803 -0.01870256 -0.052256558 -0.05847313 -0.06476046
-0.079664424 0.06334046 -0.00795813 -0.033081003 0.08860307 -0.0725883 -0.0002371974 -0.04504491
-0.054367438 -0.08564377 0.06394395 -0.04952913 0.060327593 -0.040354 -0.104143806 -0.018562734
-0.07817491 -0.04366649 0.0035947028 -0.0024064477 -0.04968743 0.047136836 -0.086628444 -0.011268134
0.031277273 -0.09195607 -0.06034808 -0.06784372 -0.06788626 0.0034037232 0.012587103 0.02745163
0.05056094 -0.12150753 0.05860893 0.03957071 0.021714045 -0.03640577 -0.008260892 -0.14832781
0.04358961 -0.015519502 -0.06202083 0.05060121 0.03570826 -0.008897579 0.00014622346 -0.13095833
-0.12748644 -0.02712643 0.00903218 0.072633944 -0.060114425 -0.044847753 -0.088726155 -0.14826676
-0.0060289907 -0.12099855 0.030462004 -0.08650196 -0.07471001 0.06628333 -0.0005967364 0.058818553
-0.105295956 0.023534197 -0.0127524715 0.032218665 0.023470914 0.052813865 0.059995867 0.029393073
0.021314595 0.061150994 0.082301065 -0.056232024 0.049197376 0.0681258 -0.022967229 0.024007281
-0.09645546 -0.00359798 -0.014904749 0.022756122 -0.05650774 -0.045272686 0.07160187 -0.046125323
-0.011222186 0.03305912 0.07785143 -0.01117058 0.005615116 -0.25098348 0.0082996115 -0.11983784
-0.01898783 0.021866737 -0.062732026 -0.029348377 -0.00389323 0.06563695 -0.04713247 -0.24455158
-0.17434332 -0.040692635 -0.04741704 0.04104329 0.13233441 -0.033684067 -0.11121424 0.08734155
0.019524772 -0.058243252 0.0396926 0.051554073 0.055908576 0.07069495 -0.02584447 -0.08787626
0.07013441 0.07382374 0.15694049 -0.04676763 0.039683565 0.011547514 0.030226087 0.047246695
0.050672688 0.05212452 -0.06641572 0.07599396 0.03454419 0.037380345 -0.058484748 0.114089206
0.036659468 0.107451744 0.033832356 -0.041476008 0.06215402 -0.10026941 -0.09224661 -0.1013141
-0.057661027 0.07962299 0.07903221 -0.04007637 0.028377267 -0.09265415 -0.15842123 0.07956859
0.01284299 -0.07212946 -0.19064762 -0.015488017 -0.068376295 -0.061525155 -0.048876334 0.06702537
00000000: 8f7d 553d f4b8 843c 8793 77bd e346 2e3c
00000010: 12ab 0e3d 7e8c abbc caab bf3c ede9 673c
00000020: 186c 003d 104b b03d d4d6 0c3d d57d 8fbb
00000030: 36b9 86bd dc29 c9bb ab9d b8bd 005a 10bd
00000040: 0cf4 76bc 0580 153c 9db2 9fbd 6b28 283c
00000050: 869a 2cbc ad2e 71bc 604d 37bd e627 2d3d
00000060: c6bc 6abd 53bb 7ebc 593b c5ba a3f9 55bd
00000070: 949a 033d 913e 283b fbba bd3c 09f1 103d
00000080: 360b 61bd 80ac 00bd 5b24 993c d378 30bd
00000090: cd8b 32bc 1d4d 6f3d 4c80 babc b8dc 423d
000000a0: 08cf 073d 40ec 7bbd 65fe 78bd a200 663d
000000b0: f55b 99bd 12b9 1a3d 7d44 fb3b 2e47 19bd
000000c0: 3d03 2c3d ffbe d7bd ae03 113d 76e1 933c
000000d0: de7a adbc 3c31 4f3d ba8f 353d 3cf9 873c
000000e0: 9050 9e3d e1fd 8f3d 4d7c 86ba 709c 85bd
000000f0: 4f39 043d 104a a1bd 0113 72bd 1592 e0bc
00000100: 07cc b83c 40d2 3cbd 002b 2d3d 17a3 68bd
00000110: 5430 87b8 07f3 b3bd 06cd 06bd 9b0a 1ebe
00000120: da62 e1bc 134d 5f3d 3476 ee3c cae2 ee3c
00000130: cc31 3dbd 459a 413d 85df 5bbd 9ca8 b73d
00000140: c891 ab3d 1e7a 65bd 3685 09bd db01 603b
00000150: c6f8 103d 6fc1 a73c ab1d 8cbd 634d c6bd
00000160: 3b8a 533d a994 383d 9c7e fbbd 35e2 27bc
00000170: 1c36 99bc f90a 56bd 8581 6fbd 22a1 84bd
00000180: 1a27 a3bd a5b8 813d d162 02bc f27f 07bd
00000190: 8775 b53d 2da9 94bd 31b8 78b9 0381 38bd
000001a0: 64b0 5ebd 0066 afbd 0cf5 823d 0fdf 4abd
000001b0: 111a 773d 3c4a 25bd 5949 d5bd e010 98bc
000001c0: 2b1a a0bd a2db 32bd 1b95 6b3b 7eb5 1dbb
000001d0: 0c85 4bbd 8e12 413d 416a b1bd fb9d 38bc
000001e0: 991c 003d 7753 bcbd 8c2f 77bd a6f1 8abd
000001f0: f407 8bbd 0011 5f3b 233a 4e3c 3ee2 e03c
00000200: fd18 4f3d f1d8 f8bd eb0f 703d e614 223d
00000210: a7e1 b13c 371e 15bd b158 07bc 3fe3 17be
00000220: 058b 323d 8245 7ebc 8e09 7ebd 3743 4f3d
00000230: d342 123d 27c7 11bc 9053 1939 f119 06be
00000240: ce8b 02be 3f38 debc b5fb 133c 1bc1 943d
00000250: 8b3a 76bd 47b2 37bd 0fb6 b5bd 3ed3 17be
00000260: d78e c5bb 16ce f7bd 748b f93c f127 b1bd
00000270: 9001 99bd 8ebf 873d 4d6e 1cba b9eb 703d
00000280: 68a5 d7bd caca c03c beef 50bc b8f7 033d
00000290: 1346 c03c 5a53 583d 3abe 753d bec9 f03c
000002a0: f29b ae3c 7779 7a3d 768d a83d 8d53 66bd
000002b0: 3083 493d 8a85 8b3d c525 bcbc ebaa c43c
000002c0: 718a c5bd 16cc 6bbb 0c33 74bc 0c6b ba3c
000002d0: a974 67bd da6f 39bd 00a4 923d e8ed 3cbd
000002e0: 42dd 37bc 0069 073d 9270 9f3d cf04 37bc
000002f0: 02ff b73b e880 80be 18fb 073c 8b6d f5bd
00000300: 5e8c 9bbc df21 b33c a679 80bd 026c f0bc
00000310: 9025 7fbb aa6c 863d fa0d 41bd bb6b 7abe
00000320: 0e87 32be 52ad 26bd 5f38 42bd 021d 283d
00000330: ac82 073e 4ef8 09bd 4bc4 e3bd 20e0 b23d
00000340: 6af2 9f3c 7a90 6ebd b594 223d 5d2a 533d
00000350: 6400 653d 84c8 903d c8b7 d3bc 78f8 b3bd
00000360: a1a2 8f3d e730 973d 02b5 203e 6a8f 3fbd
00000370: 3c8b 223d c931 3d3c b39c f73c c085 413d
00000380: 2a8e 4f3d 8580 553d f704 88bd b9a2 9b3d
00000390: 357e 0d3d 221c 193d b48d 6fbd 9aa7 e93d
000003a0: 3d28 163d a90f dc3d cc93 0a3d bfe2 29bd
000003b0: 3795 7e3d 0c5a cdbd caeb bcbd c47d cfbd
000003c0: f82d 6cbd 6111 a33d a4db a13d 1f27 24bd
000003d0: 7177 e83c 76c1 bdbd 2d39 22be dbf4 a23d
000003e0: 686b 523c 9cb8 93bd 2139 43be 74c1 7dbc
000003f0: df08 8cbd cd01 7cbd 8d32 48bd 9944 893d

network.6.bias f4 [64]
-0.10433292 -0.07608387 -0.113042735 -0.031202842 -0.073920734 -0.13670689 0.035021584 -0.003263292
-0.15249331 -0.095042415 -0.08213365 -0.053746108 -0.08422695 -0.036755748 0.010881145 -0.12472362
-0.11925462 -0.058290336 -0.12078337 -0.06703705 -0.066885136 0.13850309 -0.0018989472 -0.11478745
-0.040950783 -0.08054019 -0.116259545 -0.066167146 -0.110129125 -0.09401167 0.004483847 -0.15642394
-0.1209376 -0.13028876 -0.088757396 -0.025082573 -0.048187014 -0.048115544 -0.04423706 -0.086366184
-0.11317958 -0.09262696 -0.055869985 -0.07159516 -0.09635973 -0.049441803 -0.111205265 0.056034546
-0.013568667 -0.042575143 -0.008268114 -0.1270416 -0.085922904 -0.14155303 -0.027565205 0.08224062
-0.07567066 -0.04772676 0.03273689 0.010849933 -0.07949845 -0.020643014 -0.15077221 -0.20108344
00000000: 7fac d5bd dcd1 9bbd f382 e7bd 1a9d ffbc
00000010: c163 97bd e4fc 0bbe cb72 0f3d f4dc 55bb
00000020: 3527 1cbe 99a5 c2bd b035 a8bd e124 5cbd
00000030: 2e7f acbd 328d 16bd d446 323c 196f ffbd
00000040: c43b f4bd d9c1 6ebd 465d f7bd b94a 89bd
00000050: 13fb 88bd c1d3 0d3e 18e6 f8ba af15 ebbd
00000060: 02bc 27bd 41f2 a4bd 7c19 eebd a482 87bd
00000070: 618b e1bd 3189 c0bd 3ced 923b 992d 20be
00000080: 22ae f7bd 6b6a 05be 70c6 b5bd f879 cdbc
00000090: bf5f 45bd ce14 45bd eb31 35bd c1e0 b0bd
000000a0: b2ca e7bd 34b3 bdbd edd7 64bd 7ca0 92bd
000000b0: 4058 c5bd 7d83 4abd 96bf e3bd 7b84 653d
000000c0: 1d4f 5ebc 4663 2ebd fc76 07bc 3117 02be
000000d0: 59f8 afbd 47f3 10be 6dd0 e1bc c56d a83d
000000e0: 38f9 9abd 237d 43bd 1e17 063d ebc3 313c
000000f0: 15d0 a2bd 8a1b a9bc 0864 1abe d1e8 4dbe

network.9.weight f4 [32, 64]
-0.015061632 -0.07086092 0.058524717 -0.10874142 0.06015798 -0.09471234 -0.02006551 0.020499911
0.09354531 -0.1371032 -0.0974629 0.11553807 0.060178645 -0.19841275 -0.025264036 -0.07461541
0.0046203244 -0.015181839 0.118182145 -0.08062953 -0.119786695 0.061221004 0.037686113 0.0063756965
0.022751553 0.023017697 -0.011725625 0.072641514 0.03064646 -0.070508115 0.097008534 -0.1027861
0.005755562 -0.13750692 0.06639321 0.060437888 -0.08021084 0.07196911 -0.13873889 0.07310733
0.037750453 -0.01084385 -0.015197913 0.008422608 -0.006742316 -0.073107295 -0.080925025 0.048151698
-0.12992366 0.10562058 -0.11514072 0.020904776 0.018602021 -0.08851026 -0.15248081 0.020887397
-0.054380573 -0.18993466 0.04308394 -0.13129492 -0.052646235 0.09958882 -0.0406783 -0.07709783
-0.09234283 0.06610921 -0.037973814 0.08297205 0.08910233 -0.0845841 -0.11211997 0.09985089
0.025543543 0.051447205 -0.07928472 0.24327622 -0.032650556 -0.07499533 -0.08596869 -0.030029537
-0.090244055 0.0031132712 0.060480475 -0.03488102 -0.08762263 -0.07595458 -0.06642885 0.054640427
-0.12026572 0.030422896 0.13282888 0.105048954 -0.021464784 -0.13398336 -0.055800337 -0.050890267
-0.025520843 0.07444176 -0.044827882 -0.013504279 -0.052612383 0.0037835895 0.06368108 -0.059301876
0.005784308 -0.06898311 0.0031537293 0.09168146 -0.06322547 0.172559 -0.061605684 0.0091953045
-0.105834976 -0.05727487 0.0027518957 -0.018430747 -0.07166342 0.031678542 0.09450198 -0.19194837
0.025946507 0.023680188 -0.09003419 -0.038141996 0.030965142 0.061177704 -0.15193194 0.04738157
0.068473086 -0.056237966 0.044353332 -0.029869137 -0.012788411 0.06422543 -0.004584913 -0.0064408937
0.07300744 0.08665026 -0.08883074 -0.08713064 0.027200276 0.054725874 0.019945174 -0.13021685
-0.05524765 0.12381241 0.08526289 0.12723738 -0.1003742 -0.13840294 0.0388263 0.09521881
-0.043317866 0.11906397 0.103130385 -0.08821078 0.026035879 -0.051258113 -0.08960631 0.07680748
0.1339807 0.0010592573 -0.19885351 0.05607395 -0.097144224 -0.0024612444 -0.07271441 0.041762196
-0.005667738 -0.014225085 -0.09852827 0.007089431 -0.11381644 0.045258287 -0.1109304 -0.115182556
-0.25262183 -0.09390371 0.09114384 -0.08770634 -0.10035673 -0.01044512 -0.113615535 0.020019362
0.06694167 0.09285044 -0.08055743 -0.0041475315 0.04570635 -0.038476218 0.12786184 0.11292151
-0.007112682 -0.038809784 0.090533525 0.028914671 0.11857406 -0.047434982 0.015459809 0.011749219
-0.0429087 0.05185395 -0.05479203 -0.11685169 -0.07514876 -0.004328779 -0.21081215 -0.021623494
-0.06509018 -0.07987462 -0.090523034 -0.055898715 0.084744364 -0.11308678 -0.07010644 -0.0035932767
0.11339054 0.054996863 -0.006424512 -0.0057320893 -0.03325387 0.08615051 -0.26144826 0.032963093
-0.053953532 0.102955 -0.040255606 -0.049479555 0.07520062 -0.17927188 0.010905273 -0.041426577
0.069417275 0.07444874 0.090047 0.047580905 -0.06163149 0.15234725 -0.12379438 -5.0400995e-06
-0.026073255 0.053816378 -0.22010288 -0.015407473 -0.057843864 0.030707166 -0.07398314 0.006622558
-0.04411332 -0.16038927 -0.10489005 0.11762411 0.18416974 -0.045190778 -0.09261224 -0.12323527
00000000: 10c5 76bc 881f 91bd 9db7 6f3d d2b3 debd
00000010: 3768 763d 8bf8 c1bd 6d60 a4bc 6eef a73c
00000020: af94 bf3d c864 0cbe a19a c7bd 399f ec3d
00000030: e27d 763d b62c 4bbe 86f6 cebc f7cf 98bd
00000040: 1766 973b 3fbd 78bc 7b09 f23d 1821 a5bd
00000050: ba52 f5bd e0c2 7a3d c15c 1a3d 38eb d03b
00000060: 7761 ba3c 9c8f bc3c d61c 40bc 13c5 943d
00000070: 490e fb3c 8f66 90bd 69ac c63d 8581 d2bd
00000080: 2799 bc3b 9dce 0cbe 2af9 873d b88d 773d
00000090: 9545 a4bd 8a64 933d 9111 0ebe 4cb9 953d
000000a0: 38a0 1a3d 67aa 31bc ab00 79bc fafe 093c
000000b0: a5ee dcbb 47b9 95bd 05bc a5bd b73a 453d
000000c0: b50a 05be 9a4f d83d e6ce ebbd 7e40 ab3c
000000d0: 4463 983c de44 b5bd ee23 1cbe 0c1c ab3c
000000e0: 2abe 5ebd 3b7e 42be c978 303d 2d72 06be
000000f0: 94a3 57bd 39f5 cb3d 4a9e 26bd 78e5 9dbd
00000100: 3d1e bdbd 4464 873d 6e8a 1bbd 40ed a93d
00000110: 487b b63d 6e3a adbd 289f e5bd a07e cc3d
00000120: b140 d13c 4eba 523d 0760 a2bd 671d 793e
00000130: 97bc 05bd 2797 99bd 5a10 b0bd 8100 f6bc
00000140: e0d1 b8bd 0608 4c3b 60ba 773d 67df 0ebd
00000150: 7e73 b3bd 138e 9bbd d90b 88bd a4ce 5f3d
00000160: e04d f6bd 7039 f93c 4b04 083e e823 d73d
00000170: ead6 afbc ef32 09be e58e 64bd 5072 50bd
00000180: 1611 d1bc ec74 983d 719d 37bd 0d41 5dbc
00000190: 1580 57bd 19f6 773b 3a6b 823d 86e6 72bd
000001a0: 4b8a bd3b 0447 8dbd ccae 4e3b 7dc3 bb3d
000001b0: 5b7c 81bd 4eb3 303e 3e56 7cbd e7a7 163c
000001c0: 02c0 d8bd 0e99 6abd 2659 343b 14fc 96bc
000001d0: 45c4 92bd 5cc1 013d 418a c13d 1d8e 44be
000001e0: c58d d43c f4fc c13c d863 b8bd c83a 1cbd
000001f0: 9caa fd3c 7995 7a3d 0c94 1bbe 2d13 423d
00000200: 9e3b 8c3d c859 66bd d7ab 353d 1fb0 f4bc
00000210: 7c86 51bc 9f88 833d 0a3d 96bb 220e d3bb
00000220: ed84 953d b175 b13d e4ec b5bd 8d71 b2bd
00000230: 1dd3 de3c 3d28 603d 1064 a33c 9157 05be
00000240: 5c4b 62bd 5c91 fd3d 4f9e ae3d 844a 023e
00000250: fd90 cdbd 80b9 0dbe 5408 1f3d 1402 c33d
00000260: 136e 31bd d0d7 f33d 0636 d33d daa7 b4bd
00000270: 3249 d53c 07f4 51bd 8383 b7bd 3d4d 9d3d
00000280: 3d32 093e c7d6 8a3a 41a0 4bbe ccad 653d
00000290: 8df3 c6bd d44c 21bb 4beb 94bd d60e 2b3d
000002a0: 6fb8 b9bb 5510 69bc 31c9 c9bd 754e e83b
000002b0: 9818 e9bd c160 393d 7a2f e3bd d5e4 ebbd
000002c0: a657 81be 9750 c0bd 9fa9 ba3d 629f b3bd
000002d0: d487 cdbd 0222 2bbc 43af e8bd a5ff a33c
000002e0: b718 893d 5f28 be3d 4bfb a4bd 04e8 87bb
000002f0: 9536 3b3d 3d99 1dbd 37ee 023e 6543 e73d
00000300: 8011 e9bb 02f7 1ebd a469 b93d 76de ec3c
00000310: f5d6 f23d 2f4b 42bd 244b 7d3c cc7f 403c
00000320: 08c1 2fbd cf64 543d 9c6d 60bd f04f efbd
00000330: 98e7 99bd 6ed8 8dbb 24df 57be c123 b1bc
00000340: 004e 85bd 4e95 a3bd 2464 b9bd 0df6 64bd
00000350: 748e ad3d 0b9a e7bd f793 8fbd 2e7d 6bbb
00000360: 4d39 e83d 6444 613d b684 d2bb 40d4 bbbb
00000370: 3635 08bd ae6f b03d 8cdc 85be 4f04 073d
00000380: 61fe 5cbd 12da d23d 10e3 24bd 13ab 4abd
00000390: c802 9a3d 0c93 37be 08ac 323c eaae 29bd
000003a0: a52a 8e3d 9578 983d 906a b83d 32e4 423d
000003b0: 4d71 7cbd eb00 1c3e e887 fdbd 201e a9b6
000003c0: 9497 d5bc 906e 5c3d a662 61be a06f 7cbc
000003d0: b0ed 6cbd 988d fb3c 7984 97bd 0b02 d93b
000003e0: 2bb0 34bd 163d 24be 98d0 d6bd e9e4 f03d
000003f0: fe96 3c3e f719 39bd 7cab bdbd c662 fcbd

network.9.bias f4 [32]
-0.0806684 0.1365499 -0.13061005 -0.03952751 -0.018911472 0.076380305 -0.110904984 -0.044669032
-0.12319937 -0.14924954 -0.08352127 0.091341764 -0.12396874 -0.013945366 -0.0049911994 -0.07423438
-0.11733345 -0.13533679 -0.14770171 0.053743634 0.038963873 -0.0066264416 -0.09153434 -0.033386305
-0.15540645 -0.19634938 -0.16509348 -0.12893908 -0.078346565 -0.01766881 -0.016635617 0.038529627
00000000: 7935 a5bd bdd3 0b3e a4be 05be 99e7 21bd
00000010: 3bec 9abc 476d 9c3d 2722 e3bd e0f6 36bd
00000020: f44f fcbd dfd4 18be 330d abbd 6411 bb3d
00000030: 53e3 fdbd 1b7b 64bc 378d a3bb 3208 98bd
00000040: 854c f0bd ba95 0abe 1e3f 17be 4922 5c3d
00000050: 9598 1f3d 9f22 d9bb 5b76 bbbd 14c0 08bd
00000060: de22 1fbe d00f 49be 440e 29be 9b08 04be
00000070: 2a74 a0bd 2ebe 90bc 6b47 88bc 3ed1 1d3d

network.12.weight f4 [1, 32]
-0.08073954 0.03682031 -0.05838425 -0.066791594 -0.0055302423 0.019813988 0.14181982 -0.010939785
-0.012963578 0.0065542934 -0.063664325 0.028791672 -0.08690644 -0.08062315 -0.002857564 0.050313808
-0.054651126 -0.000751503 0.11432564 0.010334764 0.05069707 -0.005533742 -0.021589141 -0.020946
0.0073620644 0.10057709 -0.01571492 0.0011324409 0.01828612 0.010910118 -0.026293138 0.00270273
00000000: c65a a5bd e5d0 163d 5324 6fbd 08ca 88bd
00000010: 0937 b5bb f250 a23c 3739 113e c93c 33bc
00000020: 3065 54bc 66c5 d63b 7162 82bd 83dc eb3c
00000030: 01fc b1bd c01d a5bd f845 3bbb da15 4e3d
00000040: dcd9 5fbd 8300 45ba 9023 ea3d 2453 293c
00000050: bba7 4f3d 6454 b5bb b6db b0bc f296 abbc
00000060: 793d f13b 5dfb cd3d 93bc 80bc 696e 943a
00000070: c6cc 953c 5ac0 323c b564 d7bc 4920 313b
