best_model.pth (torch, 114997 bytes, 9 tensors)

network.0.weight f4 [128, 5]
00000000: e0d1 fcbe 8042 403e a5fb 7a3e 346c b73e
00000010: ab09 313e 9624 b73c b11e 113e c6b1 a03d
00000020: 2d0c 4ebc e948 603c 1969 1dbd 4120 343e
00000030: 4932 1fbe 6e2a c73d f56d 31be d9c8 0c3e
00000040: ee49 443d d054 e63e d455 9b3c a3b2 b7be
00000050: 6ac6 793d f321 e5be 8672 aebe 3da8 b1bd
00000060: 49b1 b0be c4d3 f03d f873 c1be b8c8 adbe
00000070: 3f26 993e fc50 c13c fc74 65be e898 88be
00000080: dea8 39be d938 bd3c 7c22 bb3e ed36 223e
00000090: 50e0 123f faff 4cbd 5c0f 303e 1054 6fbe
000000a0: 6fcd 73be 1219 8cbd bced 2f3e ec96 bbbe
000000b0: a1ea cd3e 84c0 53be 0a07 c03e 8313 57be
000000c0: 80d8 a7bb af0b 77be 6664 41be ff58 b9bd
000000d0: 5dc8 8f3e d1c4 27be 5872 523e 7f58 a63e
000000e0: 0aac bbbd 1f1e e23d 7414 b73d 255b 7cbe
000000f0: 62c7 5c3e c7f3 b33e 6507 983d 89c8 f3bd
00000100: 7389 a23e e505 04bd 9ac2 e3bd ca80 b4bd
00000110: 0b93 d43d bd18 b6bd 8e01 c63d c526 1a3d
00000120: fb6a 523e 919d e73d 13ce 3bbe a54c 49be
00000130: eb31 423e b511 bbbe b49d 0d3e eeff ba3e
00000140: 90fe a7bd c81c 4ebe d63a 3dbe f3ba 1fbc
00000150: de94 c83e 552f d2be 0516 383d 9e5c 0cbe
00000160: cf2a 2fbe 6c54 7fbe 4541 b6be 1899 a13d
00000170: 69eb 253e 8322 a0bd 3488 95be be51 7cbe
00000180: 76d6 30bd e0f8 c13d 923d 153e 5971 d4be
00000190: d013 02be 116c a5be 7319 a7be 43d4 243e
000001a0: bdc9 35be 7ed8 28be 1899 993c ffe9 d03d
000001b0: 6bc7 a0be 1fcc 93be 9164 20bd 726d 4ebe
000001c0: 2615 cabe b0a6 84bd e3a9 9bbe 3a68 583e
000001d0: db7a 59be 451f 3ebe afab 653e e9bc 6d3a
000001e0: 323a 4abe b9e7 2a3e 9017 813d 5481 a03e
000001f0: 7a92 9fbe c517 cabd 371a 893e 1e66 683c
00000200: bff3 c3be 4354 d2bd 6459 42be 5539 bf3d
00000210: c7fd 19be e013 02be d350 c43e 2719 cabe
00000220: 2778 56be 0d0b 563e 05cc 08bc 0168 673d
00000230: 6814 503d 81b0 b63e d658 a6be 043c 1dbe
00000240: 33c9 a73e c44d 0dbe 4287 05bc c1e9 43be
00000250: 6234 a43e 6fb0 ae3d df97 9ebe b576 3e3d
00000260: 7567 a43e 812e 37be 4d9d 9fbe 9427 c0bd
00000270: 2929 73be be42 a13e a69a 72be 743c 23be
00000280: 101a 113e ab8e 6bbe d61a 4c3c e8c5 363e
00000290: 2de1 3dbe 3796 213e fcd7 ccbe f936 9c3d
000002a0: 34dd 2b3e 4d8a 563d b8d2 46be 0ae8 843e
000002b0: e636 e8be 8462 893e d590 2cbe d73e 49be
000002c0: e151 1b3f e34f 51be b0d9 12be db80 2e3e
000002d0: 7e62 28be af45 003e ff4e e43d 1099 883e
000002e0: d7bb f5be 6c00 b53e 8dbe 84be 4e62 23bd
000002f0: 9488 b1be 4ac0 02be 553f 483e c6fa 143f
00000300: 50c3 38be 9ff8 513e d14f 7e3d 80fa 20bf
00000310: 9090 153e 0f16 3f3e e51b 6a3d 88a5 153d
00000320: 569e cebe 991e 823e 1c28 e93e b664 823d
00000330: 3e64 babe 1c83 48be f723 aebc e191 2ebe
00000340: 67ae 083e 8e09 18be 8ba3 1a3e 8db3 a6be
00000350: fa8c c9be dc5f 25be fec8 9bbe 9c2e 5c3e
00000360: de22 31bd 28a7 a63d 2887 b9bc 467f 3cbe
00000370: ec81 433e 7370 d33e a5a5 a23e 74d5 82be
00000380: 2184 d4be 2e76 693e 108a e53d 0be4 473d
00000390: 8c5d f83c f718 b33e accd 9bbe fcac 023f
000003a0: 9c6c 053e 0e9a 2c3e 33af a2be b98e 71bd
000003b0: 34c3 823e 0e27 b23e 8291 c13d 051b 46be
000003c0: d477 18be 384d 87be 1517 ecbd e616 f1bb
000003d0: c61b ed3e 687d e43d 1fb6 0d3e d058 55bd
000003e0: 5a68 ba3d 81e2 e63c ff29 45be 6031 993e
000003f0: 1317 a0bd d574 3f3e 381c abbe d139 873e
-0.49378872 0.18775368 0.24510057 0.3582474 0.17288844 0.022356313 0.14171864 0.078464076
-0.012576145 0.013689258 -0.038430307 0.17590429 -0.15546526 0.0972489 -0.17327102 0.13748492
0.047922067 0.44986582 0.018961824 -0.35878477 0.060980238 -0.44752464 -0.3407175 -0.08674667
-0.34510258 0.11759141 -0.3778379 -0.339422 0.29911992 0.023598187 -0.22407907 -0.26679158
-0.18130824 0.023098396 0.36549747 0.15841265 0.57373524 -0.050048806 0.17193359 -0.23371911
-0.23808835 -0.06840719 0.17180532 -0.36638582 0.4021807 -0.20678908 0.3750537 -0.21003537
-0.0051222444 -0.2412555 -0.18885955 -0.09050178 0.28082553 -0.16383673 0.20551431 0.32489392
-0.09163673 0.110409014 0.08939448 -0.24644144 0.21560434 0.35146925 0.074232854 -0.119034834
0.3174549 -0.032232184 -0.11121102 -0.08813627 0.10379609 -0.08891437 0.09668265 0.03763463
0.20548622 0.1130935 -0.1834033 -0.19658144 0.18964355 -0.36536947 0.1382969 0.36523384
-0.08202851 -0.20128167 -0.18479475 -0.009749162 0.39176077 -0.41051736 0.044942874 -0.13707206
-0.17106174 -0.24934548 -0.35596672 0.078905284 0.16203083 -0.078190826 -0.29205477 -0.24640557
-0.043173276 0.09471297 0.14574268 -0.41492727 -0.1270287 -0.3230901 -0.32636604 0.16096596
-0.17752738 -0.16488835 0.018749759 0.10200881 -0.31402144 -0.2886667 -0.039158408 -0.20158938
-0.3946926 -0.064771056 -0.3040305 0.2113351 -0.21238272 -0.18566616 0.22428773 0.00090689823
-0.19748762 0.16689958 0.06303322 0.3134867 -0.3116644 -0.09867815 0.26777813 0.014184503
-0.382719 -0.10269978 -0.18979412 0.09337107 -0.15038215 -0.12702894 0.38342914 -0.39472315
-0.20944272 0.20902653 -0.008349423 0.05649567 0.05080071 0.35681537 -0.3248965 -0.15354925
0.3277069 -0.13799196 -0.008149924 -0.19132139 0.32071215 0.08529746 -0.30975243 0.046499927
0.3211018 -0.17888834 -0.31174698 -0.09382549 -0.2374617 0.31496233 -0.23691806 -0.1594103
0.14170098 -0.23003642 0.01245757 0.17848933 -0.18542929 0.15779959 -0.40008533 0.07627673
0.16783601 0.052377988 -0.1941632 0.25958282 -0.45354384 0.26832974 -0.16852124 -0.19652878
0.6067181 -0.2044063 -0.14340854 0.17041342 -0.16443822 0.12526582 0.1114788 0.26679277
-0.47994873 0.35351884 -0.2592663 -0.039888673 -0.34674513 -0.12768665 0.19555409 0.5819515
-0.18043256 0.20504998 0.062087838 -0.6288223 0.14605927 0.18660758 0.05715551 0.036534816
-0.40355176 0.2541397 0.45538414 0.06366865 -0.36404604 -0.19581264 -0.021257384 -0.17047836
0.13347779 -0.14847395 0.15101449 -0.3255886 -0.3936537 -0.16149849 -0.30426782 0.21502155
-0.043246143 0.08137351 -0.022647455 -0.18407926 0.1909253 0.4129673 0.31767002 -0.25553477
-0.41507056 0.22798988 0.11207974 0.048801463 0.030318044 0.34979984 -0.30430353 0.51045203
0.13029712 0.16855642 -0.3177429 -0.058974 0.25539553 0.3479542 0.094515815 -0.19346245
-0.14889461 -0.264261 -0.1152784 -0.007357466 0.46310252 0.11156732 0.13839005 -0.05208665
0.09101935 0.028184177 -0.19254301 0.29920483 -0.07816901 0.18696912 -0.33419967 0.26411298

network.0.bias f4 [128]
00000000: 5227 ddbe a7b2 ce3e 661a 97be 4269 6ebd
00000010: b555 eebe 7248 4cbe 30fe 47be 0e73 7ebe
00000020: 1b82 b13e 2afb ab3e 8abb 9c3e b805 dcbd
00000030: 4ca8 06bf 6fd5 3bbd b608 b4be b0eb 6abe
00000040: d6b6 9abe 2ab2 903e 9396 d1be 1333 8abe
00000050: 37c0 b03d 9e91 e93d a557 a8be 65e9 56be
00000060: 044f 03bf 7ffc 03be 1401 813d 280c 7fbe
00000070: 2799 9ebc f42a 81bd eb0f 05bf 23cd bbbd
00000080: fbf6 0d3e a65b fcbe 3805 b73e 6053 4f3e
00000090: ae1d cbbc d454 a2be 4560 60be a4c2 fcbd
000000a0: 1f8a 4ebe e745 2d3e cb54 aebe 49ba e7be
000000b0: 163f 55be 9508 75be e429 be3e beb5 4c3e
000000c0: c0cb acbe 2b61 8dbe 1341 9e3e 46d0 233e
000000d0: b911 56be f5f8 7ebd b945 21bf 5c72 973c
000000e0: 4dd6 34be 1893 893e bb5e 123e bdf0 553d
000000f0: cac4 17be 2ca5 2cbe 9c0d 89be 37bd d33e
00000100: 0611 e5bd 74d3 5a3d fea5 543e 27ea 863d
00000110: 4e95 18bf 9cd5 a33d d2c3 cfbe f20b d8be
00000120: 1dc6 9dbe 0e3f ed3d 17dd c9bc 6452 e83d
00000130: 0b53 d13d 68bf 863e cc88 79be 2a86 69be
00000140: 8b0b 8c3e ef7a 07bf 9f1d 7e3e b55a 28be
00000150: cb91 80be 4479 debd daf1 833e 435d d8be
00000160: 267c 4ebe 1a7b 8fbe 3984 8b3d b7d9 5e3b
00000170: 2902 543e fec8 11be 53a4 5dbe d0ef 0d3c
00000180: c47a 783e 3ce6 f2be 43c9 843e c26e d7bd
00000190: 0c64 f5bd 4e20 b4be 1fa0 9ebe aecf 2bbd
000001a0: bf92 4c3e 122f 3cbe 34f9 2f3e fe08 b1be
000001b0: 6338 4dbd c698 59be c733 74be ed8e 3fbe
000001c0: 3070 c43e ac94 41be 0c1a b3be a21d 32be
000001d0: 381c 4dbe 47f2 ba3d 5d87 e5be 188b f03d
000001e0: 0865 e33d 914a 163e 086b 023e 9296 04bf
000001f0: 021c 2b3e 1ab4 72be 52f4 93be 5489 863e
-0.43194062 0.40370676 -0.29512328 -0.05820585 -0.46549764 -0.1994951 -0.19530559 -0.24848577
0.34669575 0.3359006 0.3061183 -0.10743278 -0.5260055 -0.045857843 -0.35162896 -0.2294147
-0.30217618 0.28260928 -0.40935192 -0.26992092 0.08630412 0.114047274 -0.32879367 -0.2098747
-0.51292443 -0.12889288 0.06299034 -0.24906981 -0.019360138 -0.06307021 -0.51977414 -0.09169986
0.13863747 -0.49288672 0.3574617 0.20246649 -0.024794426 -0.31705344 -0.21911724 -0.12341812
-0.20169877 0.16921197 -0.34049067 -0.45259312 -0.20824847 -0.23929055 0.37141335 0.19991204
-0.337492 -0.27613196 0.30909023 0.15997419 -0.20905198 -0.062249143 -0.62997013 0.018487148
-0.17659874 0.26870036 0.1429395 0.05223154 -0.14821163 -0.16859883 -0.26768196 0.41355297
-0.111848876 0.053424314 0.20766446 0.0658763 -0.5960282 0.07999727 -0.40579087 -0.42196614
-0.3081521 0.11584292 -0.024641557 0.1134384 0.10220917 0.26317906 -0.2436859 -0.22805086
0.27352557 -0.52921957 0.24815987 -0.16440852 -0.2511123 -0.10862973 0.25770456 -0.42258653
-0.20164546 -0.28023607 0.06812329 0.003400428 0.20703949 -0.14236829 -0.21644716 0.008663133
0.24265581 -0.4744128 0.259348 -0.10519172 -0.11981973 -0.35180897 -0.30981538 -0.041946106
0.19977854 -0.18377331 0.17184907 -0.34577173 -0.050102603 -0.21249685 -0.23847876 -0.18706866
0.38366842 -0.1890437 -0.3498081 -0.17394117 -0.20030296 0.09128242 -0.44829836 0.1174528
0.111032546 0.14676882 0.12736142 -0.5179225 0.16709903 -0.23701516 -0.2889734 0.26276648

network.3.weight f4 [128, 128]
00000000: 7c6c b53c 57e2 f0bd fe05 47bd 3a05 a3bd
00000010: 6695 f2bd c6a3 ebbb 308a 6dbc 4668 743d
00000020: b4b6 023d 60a1 a9bd 5775 d4bc 8e97 6ebd
00000030: 9772 69bd 9184 993b af70 a53c 237a 8ebd
00000040: 21e5 a3bd ceb1 68bd 8857 07bd 8f66 073d
00000050: 6fa2 58bc e095 1ebd bb42 1f3d d412 a7bd
00000060: 8d19 a5bd 93fb d1bd a5dc e8bc a4ec a7bc
00000070: c1e1 90bd 0d58 68bb 7b26 a13d c542 3bba
00000080: ac45 2fbd 6470 7bbd aa9d b3bd aa78 46bd
00000090: 59d2 67bd b5d8 29bd 6773 db3c 390e 0a3c
000000a0: 6adc 9bbd fa5f 123d c632 cebc fc73 29bc
000000b0: d30d 2a3d 1520 5abd d18e 85bd 0210 d9bd
000000c0: ca4f e33c 61b6 9a3c f024 dcbd c966 0ebd
000000d0: 1675 f6ba a400 963b 30e9 95bd c829 333d
000000e0: 7bf0 61bd 65df 67bb 5c3a f8ba b0a2 6abc
000000f0: eb84 5dbc 41ae d53c ecfb 29bd 1bed d03c
00000100: 408c 7f3a 4b18 813c 3954 15bd 6440 d1bd
00000110: bf8b 87bd 5e6b b2bd e3d0 e0bd b6c6 21bd
00000120: ad87 b3bc cf87 2dbd af54 ca3c edbc 15bc
00000130: ca54 ba3c b470 f2bc dfbf e73c 38dc 433d
00000140: 4738 25bc bd1f a5bd 3eb3 00bd cdbb 123d
00000150: 0cb3 383d e9bb 7cbd 65df 03be 2493 aa3a
00000160: 3a9b 18bd df67 d63c faea 16bd 19ee c4bc
00000170: 68f4 82bd 2eb4 b7bd cc8c 24bc 837f f4bc
00000180: 2406 20bd f4c3 b2bc 2088 87bc 05e6 c2bd
00000190: 35e3 5c3d 21d1 44ba f13f 22bc 3131 0ebd
000001a0: ca68 2abc 1bac 84bd 1d7c 12bd 4943 ffbc
000001b0: dac4 cd3c 99ce 05bb 8aab a7bd db8f efbc
000001c0: fdd6 96bd 2e20 9ebd 6438 95bd 7409 bdbb
000001d0: 6a7a aabd f1cd 573d df0a 72bd a0fc 5abd
000001e0: 5ca3 1c3c 584b bdbd 3b89 8bbd 13d5 d53c
000001f0: 42a8 a7bd d00c 5ebb 57f7 ee3b 5069 ddbd
00000200: 516f 09bd a788 87bd f59e 923c 2484 d8bd
00000210: ff63 40bd 6e1d d9bd b4e9 a2bc 1d70 63bd
00000220: 7ebe aabd feaa 1bbd 1210 82bd 47c6 a6bd
00000230: f3c3 9bbd b7a4 9e3d 67c0 e4bd 2376 c53c
00000240: 83f1 acbd 05b4 69bd 529f ff3b 6445 5dbd
00000250: c91c d2bc 32ed 79bd f88a 0fbe c897 7f3d
00000260: 274a aebd 7f3d 893d 3eb0 0abe f8c1 9fbd
00000270: 8a67 a6bd e67a 323d 58ca 963a fa93 7abd
00000280: c2ce ba3c b7a7 5abd 5d17 5c3d 2177 99bd
00000290: 0614 22be bcd2 70bd d682 213d b23b 123c
000002a0: 5566 3e3b 194e 11bd f585 9fbd d695 12bd
000002b0: 3f8f e8bc bd1e 9bbc a64d a9bd eba7 01be
000002c0: 64db bdbd 315a b6bd 3b71 9cbd 5608 913c
000002d0: 5064 92bb 6bcd 893c 9d63 58bb 2437 c1bd
000002e0: 24d5 943d d0c7 933b ca74 103c 3616 3c3d
000002f0: 005a 86bc d9b8 303d 3284 8d3d 975c acbd
00000300: 8da4 b8bc afac 6bbd a608 05bd 0e3b b9bd
00000310: 55f8 3e3d c41e 0cbe d7c5 153d ccf1 afbc
00000320: 9786 d3bc 4d07 b5bd e168 20bd 473f 943c
00000330: 6456 d1bd 3052 82bd 3cbe 60bd 7cee 423c
00000340: a017 603d d414 dd3c 2c1d ba3c fba1 d5bc
00000350: 276b bebd 6dc6 7ebd 8c35 2bbd 4cd5 73bd
00000360: bb19 533d 3d0e 45bd ef72 88bc f43e 8fbc
00000370: ff48 5cbd 9b39 37bc c1d6 55bd 44e0 c43d
00000380: 8cd8 d0bb 1800 e4bd 553f 04be a0e8 efbd
00000390: 129f 1539 1337 ab3c f5f1 fcbd 5265 a6bc
000003a0: abea 553d 0d57 713c 540e 99bd d37a 6f3c
000003b0: eb02 59bd febc a3bd 3ce4 acbc 7fb1 d3bb
000003c0: 400c d4bd 4eb3 03ba c5da 4d3c 86dd 8cbd
000003d0: ada9 a1bd d8b6 943d 86c1 3dbc d6aa bebd
000003e0: 5f10 fc3c c11d 643d 93bc 703d 3cda 6dbc
000003f0: 7038 84bb cc5e 82bd db56 a93d e6b7 a8bd
0.022146456 -0.11761921 -0.0485897 -0.07959981 -0.11844902 -0.007191154 -0.0144982785 0.059669755
0.03191252 -0.08282733 -0.025934858 -0.058250003 -0.056994047 0.0046849926 0.020195333 -0.069568895
-0.08002687 -0.056810193 -0.03304246 0.033056792 -0.013222321 -0.03871715 0.038882 -0.08157888
-0.08061514 -0.10253062 -0.028425524 -0.020498581 -0.07074309 -0.0035452873 0.07868668 -0.00071434333
-0.042791054 -0.06138648 -0.087703064 -0.048454918 -0.056597088 -0.041466434 0.026788427 0.0084262425
-0.076104 0.03573606 -0.025170695 -0.010342594 0.04151709 -0.053253252 -0.06521381 -0.105987564
0.027748007 0.018885793 -0.10749233 -0.034765992 -0.0018803205 0.004577713 -0.073198676 0.043741018
-0.05516098 -0.0035380956 -0.0018938291 -0.014321014 -0.01352046 0.026084067 -0.041500017 0.025503686
0.0009748377 0.015758654 -0.036457274 -0.1021736 -0.06618451 -0.08711885 -0.10977342 -0.039496146
-0.021915281 -0.042365845 0.024698583 -0.009139282 0.022745509 -0.029594757 0.028289733 0.04781744
-0.010084218 -0.08062694 -0.03142094 0.035823632 0.045092627 -0.061702643 -0.12878187 0.0013013822
-0.03725741 0.026172576 -0.036845185 -0.024039315 -0.06394273 -0.089699134 -0.010043334 -0.029845959
-0.039068356 -0.021821953 -0.016544402 -0.09516529 0.05392762 -0.0007507969 -0.00990294 -0.03471488
-0.01040096 -0.06478139 -0.035762895 -0.031160014 0.02511828 -0.0020417331 -0.08187015 -0.0292434
-0.073652245 -0.077209815 -0.07286146 -0.005768949 -0.0832413 0.052686635 -0.0590924 -0.05346358
0.009560432 -0.09242886 -0.06813284 0.026102578 -0.081863895 -0.0033882149 0.007292669 -0.108111024
-0.033553425 -0.06617861 0.017898062 -0.10572079 -0.046970364 -0.106013164 -0.019886829 -0.05552684
-0.08337115 -0.038004868 -0.063507214 -0.08143287 -0.07605734 0.077462606 -0.1116951 0.024104184
-0.08444502 -0.057056446 0.007800975 -0.054021254 -0.025648491 -0.061017223 -0.14017856 0.06240061
-0.08510237 0.067011826 -0.13543794 -0.078006685 -0.08125217 0.043574236 0.0011504395 -0.061176278
0.022803668 -0.0533826 0.05373322 -0.07493425 -0.15827951 -0.058794722 0.039431415 0.008925365
0.0029052694 -0.03547487 -0.07789222 -0.035787426 -0.028388618 -0.018935556 -0.082667634 -0.12661712
-0.09270361 -0.089039214 -0.076387845 0.01770417 -0.0044675246 0.016821584 -0.0033018359 -0.09434345
0.07267216 0.0045099035 0.008816907 0.04591962 -0.016400337 0.043145034 0.0690998 -0.084160976
-0.022539401 -0.05753773 -0.03247895 -0.09044467 0.046623547 -0.13683611 0.036565628 -0.021477602
-0.025821013 -0.08839283 -0.03916252 0.01809658 -0.10221556 -0.06363332 -0.05486892 0.011897679
0.05471003 0.02698747 0.022718988 -0.026078215 -0.092977814 -0.062200952 -0.041799113 -0.059529588
0.05153821 -0.04810928 -0.016656367 -0.017486073 -0.053780552 -0.011183168 -0.05220676 0.09613088
-0.0063734706 -0.111328304 -0.12914784 -0.117142916 0.00014269006 0.020900285 -0.12350837 -0.020311985
0.05222575 0.014730227 -0.07473436 0.014616686 -0.0529813 -0.07995032 -0.021104924 -0.006460368
-0.10353899 -0.0005023972 0.012564366 -0.0687819 -0.07893691 0.07261437 -0.011581784 -0.09309928
0.030769525 0.055692438 0.05877359 -0.014517363 -0.004035048 -0.06365737 0.082685195 -0.08238201

network.3.bias f4 [128]
00000000: 3a50 9dbb ca11 8fbd 3b76 aa3d bd94 62bb
00000010: cbad 97bd 962a f4bd 80a4 cebd 952e c9bd
00000020: 61d7 7bbd eecb ebbc 690c ecbd a149 0abe
00000030: 6113 17bd c7c1 4cbd 71f0 0abd 780f eebc
00000040: 446b 0fbe 75a4 32bd cd87 1dbe 4be1 ddbb
00000050: 4e76 81bd d3fc 72bd 4dff 5ebd 39e3 00be
00000060: 5da4 d5bd f5a3 003e 2826 f93c 86be 22bc
00000070: 6518 59bc 7b60 bbbd 29b5 18be f471 903c
00000080: 77b3 ccbd a611 7bbc f091 aabd 1d2f e43c
00000090: 0dbd 683c 1341 c33c a598 36bd 6d80 c1bd
000000a0: 6952 f53c b08c 9ebc 3bb9 b3bd 9236 cdbd
000000b0: e8cb 86bd 8241 773d fa55 39bd 1988 0cbe
000000c0: 751b 7e3c 587e 0abe ecd1 2e3d e2c3 babd
000000d0: 478e 90bb 89ac 873c ed76 16bd d4f2 8ebd
000000e0: 6368 13bd 949b 9abd c733 28bd 27ef 47bd
000000f0: 66d9 c0bc b507 79bd 4b18 94bd aeb6 93bd
00000100: 6fe2 91bd b072 75bd 5651 b9bd 829e 7abd
00000110: 5e9e a4bb 9fb9 d9bd e27a 92bd 7a3a 0dbe
00000120: 04d0 a7bd 3b49 e6bc 9fd1 adbd 14f8 10bd
00000130: 06a0 8bbd b805 aabd f101 c0bd cf95 19bc
00000140: 2651 90bd 5d6b 363c f2cc 6fbc 4d32 583b
00000150: 2e62 943c 20c0 7e3c 4e56 143d c995 febd
00000160: 6c06 58bd f86a 0fbe 497b 0d3d aa0a dfbc
00000170: 343a 17bd 49a9 123d 2064 4abd dc68 ed3c
00000180: 78cd 8dbd d8d0 02be 9bda 78bd 0b06 fdbd
00000190: 3733 1b3c ab06 6cbc 8e7e dfbd c227 2abe
000001a0: e1c5 55bd bebf fabd 1713 163d f819 00be
000001b0: 51fa 0c3e 2e7b 853d 3229 253e 5773 2dbc
000001c0: 9b26 57bd 619c febc 3ebb a1bd a229 00bc
000001d0: 57d5 02be f3fb 78bd beb3 10be 1e20 513d
000001e0: 8ebc 44bc a6cd 60bc 4593 a2bd 6eea 123d
000001f0: 60fa 8ebb 1ad7 32bd 4582 d43d a60c 07bd
-0.0048008235 -0.06985815 0.08323332 -0.0034573518 -0.07406195 -0.11922185 -0.1008997 -0.09823338
-0.0614847 -0.028783765 -0.115258045 -0.1350465 -0.036883716 -0.049989488 -0.03392071 -0.02906011
-0.14005762 -0.04361387 -0.15383835 -0.006771242 -0.06321393 -0.059323143 -0.054442693 -0.12586679
-0.104317404 0.12562545 0.030413702 -0.00993312 -0.013250445 -0.091492616 -0.14912857 0.017632462
-0.09995168 -0.015324032 -0.083286166 0.027854497 0.0142052295 0.02383474 -0.044579167 -0.094483234
0.029946523 -0.019354194 -0.08775564 -0.10020174 -0.06581861 0.060365207 -0.04524801 -0.13723792
0.015509476 -0.13524759 0.042680666 -0.09119393 -0.004411492 0.016561763 -0.03673451 -0.069799095
-0.035988223 -0.075492054 -0.041065004 -0.048812058 -0.023541164 -0.060798366 -0.07231196 -0.07212578
-0.07123267 -0.059923828 -0.09048717 -0.06118632 -0.0050237617 -0.106311075 -0.07152344 -0.13791838
-0.08193973 -0.02811109 -0.08487248 -0.035392836 -0.068176314 -0.08301872 -0.0937537 -0.009374096
-0.07046728 0.011133996 -0.014636265 0.0032988966 0.018113222 0.015548736 0.03621512 -0.12430913
-0.0527405 -0.14005649 0.034541402 -0.027226765 -0.03692074 0.035805974 -0.049411893 0.028980665
-0.06923956 -0.1277498 -0.060755353 -0.12354668 0.00947266 -0.014405887 -0.1091281 -0.16616729
-0.052190665 -0.12243603 0.0366393 -0.12509906 0.13767363 0.06517635 0.16128996 -0.010586581
-0.05252705 -0.031080427 -0.07897042 -0.007822426 -0.12776695 -0.060787152 -0.14131066 0.05105602
-0.012007846 -0.013720905 -0.07938246 0.0358681 -0.004363343 -0.043662168 0.103764094 -0.032971047

network.6.weight f4 [64, 128]
00000000: fd1f 343d 3e52 c6bd 0493 26bd 38a1 1c3e
00000010: 9c0d 9bbd ed65 d6bd 411c 353b 8b04 933d
00000020: fc26 24bb 794e 8c3d 0e31 d03d 0e1b f2bd
00000030: 263b ae3c 3f47 11bd bc5c a5bd 0d93 c2bb
00000040: 7215 03bd eba8 55bb 6a0a 33bd f6f9 2e3d
00000050: c15b ea3c c872 483b dd4d 663c 0fcf 0abe
00000060: 2bb3 293c 1925 26be 327e e3bc 5991 733d
00000070: 9d82 22bc bce3 11bd 7446 473c 9751 97bd
00000080: e246 a6bd 9212 d33d e863 cbbd 8111 82bd
00000090: 3c46 5dbe e704 eb3c 0a71 cbbd 97bf 07ba
000000a0: 751f bb3c 5386 dabd 7a91 a9bd dd5b 05bd
000000b0: 91e4 67bd f545 ecbd 8140 913d 25e6 333d
000000c0: f0b4 85bd 1e8d 19bd d55e 2fbe 4ef2 6f3d
000000d0: 67d8 06bb ca37 bc3c d53a 2ebe 8992 c2bd
000000e0: 2c45 053e c21e 6d3b f7c3 963a e2a7 c13d
000000f0: 206a 043e 7569 39bc ffe7 d33d 7c90 d9bd
00000100: 2788 79bc 23ac 123d 9a5c 0d3d 3361 ef3d
00000110: 8ac7 073c 522a 50be 1c67 43bd b33f 28be
00000120: cc15 72bd 80a0 06be 710f 0cbe f845 82bb
00000130: a011 a43d f2e3 0cbd 8e86 c8bc 611d 1e3e
00000140: 75fc 91bd 2d88 edb9 01e9 e9bd ed1d 1d3d
00000150: c26a b13d 316b f6bc 3c66 1fbd b48e 2bbb
00000160: a30d 15bd 855a 2a3d 799c ac3c c6f1 a0bd
00000170: 4e70 0dbc 007e 763d 25bf 9abb d724 c0bc
00000180: 1997 bf3d 2c86 05be 3526 a9bc 6155 823d
00000190: fd14 acbd c4fd eebd bac2 84bd 0f16 14be
000001a0: 7e8c 8dbd 18da ba3d 2051 e7bd c759 2ebd
000001b0: d5d3 87be 8025 01bd 793e 93bd a539 35be
000001c0: edcf d1bd a02f 003c 7261 213d 8bc1 47bc
000001d0: d440 fd3c 2371 49bd 087f 37bd f79c 65be
000001e0: 0c5b c2bd cee8 be3c 9bcd d83c d577 01bc
000001f0: 9e6f bfbd b3df c33c 3870 af3d 3b28 59bc
00000200: 5dd1 89bc 9211 7bbd 06fa 44be 86a7 10be
00000210: c9c5 9e3d c699 92bd 555e ba3c a4e4 5e3d
00000220: b748 bebd ae5d 57bd d396 f0bc 0f6d a03c
00000230: 1670 9d3d 1653 23bd 6862 efbd 4fe1 f53d
00000240: 9d5e b43d b877 2b3d cd3b b2bd 46c0 31bd
00000250: c4e6 763d b7cf 543c 853d 2b3d c3ad 99bc
00000260: a906 db3c 19b4 1bbe e0dd d23c 4882 ae3c
00000270: 8d3a a3bd 2168 f23d dd2f 93bd 2490 783d
00000280: 0392 b0bc 8a21 0dbe 670d cb3c 57bd 053e
00000290: 09c0 363d 184f 1a3d 9e61 e03d fce6 c83c
000002a0: b3d0 babd 57a9 3ebd 3d78 83bd 72c2 9fbc
000002b0: 8eba 5d3d 93bc d7bc 158e 193d 4935 1c3d
000002c0: 1954 1fbd 0cf4 1cbd 00ba 15be 0824 df3c
000002d0: f035 ed3d e56f 01bd 2093 c1bd 3980 77bd
000002e0: 8ec8 15be d42e 783d 7537 1a3d f503 62be
000002f0: 79ff 0fbd 7e67 98bc be3b 2abc c9ea 323d
00000300: 7fe9 4bbe 1126 183c 12fa 863d 5aa2 d23d
00000310: cd7f 313c 04e9 31bd 6ec1 ab3d d53d 193d
00000320: be38 95bc 8b37 d73c d6ce 413d e74b 9d3c
00000330: f0b2 5b3c fa01 173d c736 97bc b7dc 323c
00000340: 22d5 5c3b 4608 943c 509a 003d 13df 3d3d
00000350: 82f0 b9bd 94d5 0fbc c4ad 10be 61c4 823d
00000360: 7d24 8fbc 68d6 0c3e a270 abbd 36e8 4abd
00000370: 1d9c 55bd 3251 e9bd cc7c 3a3d 2858 97bd
00000380: bb92 153e cc30 793c 687e bb3c 7a93 86bc
00000390: 451c cbbb bb4a 7cbe d44b 1d3d acea 8f3d
000003a0: b63a 3abd 26c0 8d3d 8824 8fbd 599b a73d
000003b0: ca6b a13d d6c2 7fbd 7ffb b7bd 18c5 fcbc
000003c0: d7bc c9bd 19d4 5a3d aed5 1ebd 86da 72bc
000003d0: 0077 9b3d fcd6 583c e392 163d cdb2 d7bc
000003e0: 0d2c 3abe f3ea f3bc fe74 a1bd c364 2fbd
000003f0: 2645 87bd df65 903d afb2 62be 8a47 c23d
0.04397582 -0.09683655 -0.04066755 0.15295875 -0.07570955 -0.104686595 0.002763525 0.07178601
-0.002504765 0.06850905 0.101656064 -0.118215665 0.021268439 -0.035468336 -0.08074328 -0.00593794
-0.032002874 -0.0032601904 -0.043711103 0.04271885 0.028608205 0.0030585993 0.01405665 -0.13555549
0.010357658 -0.16225089 -0.027770136 0.059464786 -0.009918836 -0.035617575 0.012162793 -0.07388609
-0.081189886 0.103062764 -0.09931165 -0.06350995 -0.21608824 0.028688861 -0.0993367 -0.00051783904
0.022842148 -0.106701516 -0.082797006 -0.03255831 -0.056614462 -0.11536781 0.07092381 0.043920655
-0.06528652 -0.037488095 -0.1712602 0.05858069 -0.0020575763 0.022975821 -0.1701463 -0.095006056
0.13014668 0.0036181663 0.0011502494 0.09455849 0.12931108 -0.011316647 0.10346984 -0.10623261
-0.015230215 0.035808694 0.03451214 0.11688461 0.00828732 -0.20328644 -0.047705755 -0.1643055
-0.05910282 -0.13147163 -0.13677765 -0.003975626 0.08011174 -0.034397073 -0.024478223 0.15440895
-0.071282305 -0.00045305621 -0.11421395 0.038358618 0.086629406 -0.03008041 -0.038915858 -0.0026177587
-0.036389958 0.041590232 0.021070706 -0.078586146 -0.008632733 0.060178757 -0.0047224932 -0.023455067
0.093549915 -0.13039464 -0.020648101 0.06363941 -0.08402441 -0.11669496 -0.06482454 -0.1446154
-0.069115624 0.09123629 -0.1129477 -0.042566087 -0.26528803 -0.031529903 -0.0718965 -0.17697771
-0.10244737 0.007823855 0.03939957 -0.01219214 0.030914702 -0.04918016 -0.04479888 -0.22423159
-0.09490022 0.02330437 0.026465228 -0.007902105 -0.09347461 0.023910379 0.08566326 -0.013254221
-0.016823465 -0.061296053 -0.19236001 -0.14126405 0.07752568 -0.07158236 0.02275006 0.054417267
-0.09291213 -0.052579574 -0.029368794 0.019583253 0.07687394 -0.03987416 -0.116886914 0.12005865
0.088071086 0.04186222 -0.08702812 -0.043396257 0.06027867 0.012988976 0.041806716 -0.018759614
0.026736574 -0.1520542 0.025740564 0.021302357 -0.07970152 0.11836267 -0.071868636 0.06068434
-0.021553999 -0.13782325 0.024786664 0.13060509 0.044616733 0.037673086 0.10956119 0.024524204
-0.091218375 -0.046548214 -0.06419418 -0.019501898 0.05413299 -0.026335036 0.037489016 0.038136754
-0.03889856 -0.03831868 -0.14621735 0.02723886 0.115825534 -0.03160085 -0.0945189 -0.060425017
-0.14627287 0.060591534 0.037650544 -0.22071822 -0.035155747 -0.018604036 -0.01039022 0.04368094
-0.1991329 0.0092864195 0.06590666 0.10284872 0.010833693 -0.04343511 0.08386503 0.037412483
-0.018215533 0.026271602 0.047316395 0.019201232 0.013409361 0.03686712 -0.018458737 0.01091688
0.0033696373 0.018070351 0.031397164 0.04635532 -0.09079076 -0.008778948 -0.14128786 0.063851126
-0.017473454 0.13753664 -0.083710924 -0.04953786 -0.052150834 -0.1139244 0.04552917 -0.07389861
0.14606754 0.015209388 0.022887424 -0.016427744 -0.0061984384 -0.24637882 0.038402393 0.07027182
-0.045466147 0.06921415 -0.0698939 0.08183927 0.07881887 -0.06244167 -0.08983516 -0.0308557
-0.098504715 0.05342493 -0.038778 -0.014822608 0.07591057 0.01323485 0.036761176 -0.026330376
-0.18180867 -0.029775118 -0.078836426 -0.042820703 -0.06604986 0.0705068 -0.22138475 0.09486301

network.6.bias f4 [64]
00000000: 5d6a 36be 20e2 fcbd 511d a8bd d41c 3ebd
00000010: 3136 2abd 4b37 2abe 7570 ccbd 93c2 22be
00000020: 671c 91bc f39d 873b ee67 a3bd 2854 36be
00000030: 047b 61bd fae9 d4bd f542 24be 313d d8bc
00000040: 5e27 23be 3ae3 2abd 2361 05be b3a0 02be
00000050: e4d0 acbb 9dc1 21be 17db 1fbe 688e a13c
00000060: 956d 96bd 4815 f5bd eca0 d5bc 9097 6cbd
00000070: 270e bbbd ea5d e8bd c591 cdbd 1c60 3cbe
00000080: 4df3 98bd b118 09be 376e ba3c b853 3abc
00000090: 3776 0abe a9f6 3abe 1000 8a3d 5d59 75bd
000000a0: f5b1 77bd 0758 00be d4e9 12bd ed56 3bbe
000000b0: db98 f8bd b071 84bd 3fc4 bcbd ef31 2bbe
000000c0: 519f 0abd 10d9 acbd d1e0 b9bd 91d4 1fbd
000000d0: 4648 25be ebc1 9abd 9345 79bd a46a 09bd
000000e0: 3075 8ebd 67b8 03be 7fd3 35bd 3645 f8bd
000000f0: c7a7 e8bd 8ac7 b6bd 362c 0ebd aa8f a2bd
-0.17814012 -0.123478174 -0.08208717 -0.04641421 -0.041555587 -0.16622655 -0.09982387 -0.15894537
-0.017713739 0.004138702 -0.079788074 -0.1780554 -0.055048957 -0.1039619 -0.16041167 -0.026396366
-0.15932986 -0.041720606 -0.13025336 -0.12756614 -0.005273925 -0.15796514 -0.1561092 0.019721225
-0.0734512 -0.1196695 -0.02607771 -0.05776173 -0.09133559 -0.11346038 -0.10037569 -0.18396038
-0.07468281 -0.13388325 0.022757633 -0.011372499 -0.13521658 -0.18258156 0.06738293 -0.059899677
-0.060472447 -0.1253358 -0.035867527 -0.18294878 -0.1213853 -0.06466997 -0.092171185 -0.16718267
-0.033843342 -0.08439839 -0.090760835 -0.03902108 -0.16140851 -0.07556518 -0.060857367 -0.033548966
-0.069559455 -0.12863313 -0.04439115 -0.12122576 -0.11360126 -0.08924778 -0.03471013 -0.07937558

network.9.weight f4 [32, 64]
00000000: 4252 56bc 7739 723c 1f0c aebd ea23 853b
00000010: 014c b23d 8079 8fbd 2351 ee3d 58f9 1fbd
00000020: ad91 b83b 85c3 2ebc 998a 21be e20e a03d
00000030: 6c8c c73d c38a 96bc 92a6 973d 5e34 cebd
00000040: 47be 923d ea70 a63b 2129 6cbd 2c49 3abe
00000050: 8e40 c3bd b417 9fbd 8977 29bd a252 26be
00000060: 38b2 08bd 3cc6 6ebd 4335 7dbd ed56 80bd
00000070: e482 c03b e8ad c13d 5e3e 06be f15b 43bd
00000080: 2c42 3dbd 60fa fabc 3689 b9bd 7e3c 55bb
00000090: e91d 32be ee91 20bd 9722 7bbc dabb 4d3d
000000a0: 2bec 52bd 1052 04be f2b2 f1bd ec20 01be
000000b0: 6401 a9bd 4e95 2e3d 0b81 26bd 1d9f 03be
000000c0: b9a8 0fbc 0c4f 0abe d42f 1e3c 92d8 55bd
000000d0: 75ef c0bd c8be 2d3d d0ef 3a3d 0516 bfbd
000000e0: 6609 e53d 14e6 f13d 4b9e 363d d108 d43d
000000f0: e4cf 6e3d ab89 063e f91c 1bbe a5c8 93bd
00000100: 9d30 c63c e419 babd b8ec 883c a216 8d3d
00000110: 71c7 0d3d 9caf 97bb 125b bfbd 4e85 4bbd
00000120: 7ef4 e23c ba46 cfbd eb3b fabd db41 fbbd
00000130: 7217 163d f069 37bd d6d3 c1bc 002b fdbd
00000140: abc7 7b3c 9a5b 733d ac7b 713c 9d48 e83d
00000150: fe66 9b3d 93b4 1a3b 6027 6a3d be52 08bd
00000160: 6f4e 91bd 1a7c d2bd 15f9 88bd 3d39 11be
00000170: da03 53bd d8ef 213c 9a08 9a3c 0d9c 5c3d
00000180: d8fa 3f3c 0e2d db3d 9e6c 9e3d 94b7 e13d
00000190: 677f c1bc 4311 4cbd 027c cdbc 201c 80bb
000001a0: 46d5 dcbd 79db 00bd fd1a b3bb 372d 8dbd
000001b0: ba37 8fbd 86e9 7a3d ef7c c73d a525 aebd
000001c0: ad84 98bd 77af bd3c 9065 fe3c ec00 d6bd
000001d0: d6cb bdbd fdaf f0bd 1ca4 7cbc edde 73bd
000001e0: dcd8 02be 6d65 9ebd 921e e03d fa01 05be
000001f0: aac9 c13d 5776 03be af7f debd 5a07 bebd
00000200: b39d 02be fe03 bebc 9ff1 11be 580b 863c
00000210: 8265 f6bd f5e1 1739 314f cbbd 7bae 303d
00000220: d59c e73c 7135 cfbd 4790 aebd 12ab 7e3c
00000230: f42a b93d 4213 80bd 8b60 18be 5627 f4bd
00000240: 3c06 0ebe 33cc b83d ffda 59bd fa90 58be
00000250: 0ea9 58bd 901b 7f3b 44d4 893d 0a2f 66bd
00000260: 9388 35bd 28aa dc3c 16d3 28bd d874 e2bb
00000270: 15e7 583d 273e e83c ec7c 1ebd 9c54 c93d
00000280: 674d 06be c1a4 9cbc e5cc 1fbd 1177 903d
00000290: ca89 16bb 5ab3 47bd 8f8d 203d 492f b33d
000002a0: ea87 afbd e539 04be a0ea 8bbb 80d5 d93c
000002b0: 9201 873c 1945 573d 52e9 c1bc 62c4 71bd
000002c0: 173b c1bd 5bdb a8bd ca64 30bc e008 b1bc
000002d0: a449 30bd b7ae e2bd 5827 54bd 2f3f d2bd
000002e0: 49a1 b83d 0e94 0ebd 442c 9fbd 31ca 763d
000002f0: 66c6 ec3d edf3 68bd 0470 f7bd a283 cebd
00000300: e5dd 47be 7c63 ccbd 39c6 a03c 99f1 fd3c
00000310: a411 4e3d fdf5 d1bd 7855 c63d acc6 773d
00000320: ad74 bdbd 0cc7 f2bd 9c09 35bd a534 4e3d
00000330: e509 41bd 7eea 3dbd 2312 97bd a5f4 923d
00000340: 082e ebbb ba82 9fbd 88de 953d 78ed 10bd
00000350: befa a63d 8d77 d2bd 55d5 813d a2cb 65be
00000360: 5cd2 edbd 034e 9abd ee45 afbd cdc5 2cbe
00000370: b467 af3d 91e8 d4bd 973d 69bd 36de dfbd
00000380: 65fe 2ebd 73f0 ff3c 9f3c a23d 6790 b13c
00000390: 4b88 7dbd f211 033e 134c 37be db9e eebd
000003a0: 883d 09be 5150 f5bc 4c28 1dbd c02c 76bc
000003b0: a017 18bd 0372 78bd 8c59 833c 665a af3d
000003c0: b454 303d 31bb c03d 6a5a 853d eb9f 30bd
000003d0: 8246 66ba c31c f53c b8b9 debc 1eb8 683c
000003e0: 81c5 873c 82e4 24be 688b 02be 5409 31bd
000003f0: 9a87 eb3d d3d5 0a3e 8fab 60be e6ec dd3c
-0.013081135 0.0147842085 -0.08498406 0.004063119 0.08705903 -0.07005596 0.11636569 -0.039056152
0.0056326003 -0.010666733 -0.15775527 0.07815339 0.0974358 -0.018376714 0.07404818 -0.10068582
0.07165199 0.0050793784 -0.05765641 -0.18191975 -0.09533797 -0.07768193 -0.041373763 -0.1624246
-0.033373088 -0.05829452 -0.061818372 -0.0626658 0.0058749784 0.09456998 -0.13109729 -0.047695104
-0.046205685 -0.030636966 -0.09059374 -0.0032537277 -0.17394222 -0.03920167 -0.015328071 0.050227977
-0.05149476 -0.1292193 -0.11801709 -0.12610215 -0.08252218 0.042622857 -0.04065041 -0.12853666
-0.008768254 -0.13506716 0.009654958 -0.05220849 -0.09420673 0.04241827 0.04563886 -0.09330372
0.11183433 0.11811462 0.044584554 0.10353244 0.05830373 0.13138454 -0.15147771 -0.07216004
0.024193102 -0.090869695 0.016714439 0.068890825 0.03461403 -0.0046290886 -0.09343542 -0.049687676
0.027704474 -0.10120912 -0.1221846 -0.1226842 0.036643453 -0.044778764 -0.023660582 -0.12361717
0.015367429 0.05941353 0.014738958 0.11341975 0.075880036 0.0023606166 0.057166457 -0.033282034
-0.07095038 -0.10277577 -0.066881336 -0.14181991 -0.051517345 0.009883843 0.01880293 0.05385976
0.011717521 0.10701953 0.07735561 0.11021343 -0.02362032 -0.04982115 -0.025083546 -0.0039096028
-0.10782866 -0.031459305 -0.0054658637 -0.0689339 -0.06993051 0.06125786 0.09740626 -0.08503274
-0.07447181 0.023154957 0.031054288 -0.104493946 -0.09267394 -0.11752317 -0.015419986 -0.05953877
-0.12778038 -0.07734189 0.10943331 -0.12989035 0.094622925 -0.12838112 -0.108641975 -0.09278746
-0.1275547 -0.023195263 -0.14252327 0.016362831 -0.1203108 0.00014484658 -0.09927214 0.043135148
0.028273026 -0.10117615 -0.085236125 0.015543716 0.09041396 -0.06253673 -0.14880578 -0.11921565
-0.13869566 0.09023323 -0.053187367 -0.21149054 -0.052895598 0.003892634 0.067299396 -0.056197204
-0.0443197 0.026936606 -0.041216932 -0.0069109015 0.052954752 0.028349949 -0.038693354 0.09830591
-0.13115464 -0.01912153 -0.039013762 0.0705396 -0.0022970312 -0.048755027 0.0391975 0.08749253
-0.085708454 -0.1291271 -0.004269913 0.026591063 0.016480241 0.05255613 -0.023670826 -0.059025176
-0.094350986 -0.08244964 -0.0107662175 -0.021610677 -0.04303898 -0.110684805 -0.051795334 -0.102659576
0.09015138 -0.034809165 -0.07772115 0.06025142 0.11561279 -0.05687325 -0.12081912 -0.10083701
-0.1951824 -0.09979913 0.01962577 0.030998992 0.050309792 -0.10251997 0.096842706 0.060492203
-0.0925077 -0.118543714 -0.044198617 0.050343174 -0.047128577 -0.046366207 -0.07376506 0.071755685
-0.007177118 -0.07788606 0.07317835 -0.035382718 0.08153294 -0.10276709 0.06339518 -0.22440961
-0.116123885 -0.07534411 -0.0855826 -0.1687233 0.08564702 -0.10395921 -0.056943502 -0.10931055
-0.04272308 0.031242585 0.07921719 0.021675302 -0.061897557 0.12799814 -0.17900114 -0.11651393
-0.13402379 -0.029945524 -0.03836851 -0.015025318 -0.037131906 -0.060655605 0.01603391 0.08562164
0.04304953 0.09410704 0.06511386 -0.04312126 -0.000878431 0.029920941 -0.027188167 0.014204053
0.01657367 -0.16102794 -0.12748492 -0.043221787 0.11500473 0.1355813 -0.21940444 0.027090501

network.9.bias f4 [32]
00000000: 90df 80bd 1b12 74be 2a21 f7bd 52aa 13be
00000010: a8ae d53c 189c 5fbd 07ff 59be 76b1 a8bd
00000020: 14d3 0cbe 5b84 a0bd 39a8 c13d 60aa e8bc
00000030: e8fd 01be 882d 0ebe 2ffc 123d c7e1 5cbd
00000040: 7e63 3f3e 39df 0ebe 02e7 42be 9d23 dfbd
00000050: 3788 31be 3b58 1fbd 168b 72be ce55 e3bd
00000060: 8bd6 0abe df63 48bd 0120 bcbc 520d af3d
00000070: ca9a d1bd 5736 22bd 9d6b 2fbd 6221 143e
-0.06292641 -0.23835032 -0.120668724 -0.14420441 0.02608426 -0.054592222 -0.21288691 -0.08236973
-0.13752395 -0.07837745 0.09455914 -0.028401554 -0.12694514 -0.13884556 0.035885032 -0.053926256
0.18690297 -0.1395234 -0.19033435 -0.108954646 -0.17337118 -0.038902503 -0.2368587 -0.1110035
-0.13558404 -0.04892337 -0.02296448 0.085474625 -0.10234602 -0.039602604 -0.042827237 0.1446586

network.12.weight f4 [1, 32]
00000000: 9ab1 243d c665 9d3b d3d8 e6ba 1a23 243b
00000010: 3b4b c73c 942f 2e3b 2f77 803c 1c03 06bc
00000020: f948 5b3c a428 42bd 8649 483d 5aba 883d
00000030: 7e24 89bc 231c ac3b f4e6 6b3c d9c8 74bc
00000040: f34e 943d bd27 a9bb b062 dbbb 9aaa b8bd
00000050: d26c 33be c61a 993d 5553 c7bc c044 453b
00000060: faac 833b 3e7b 383d 8396 00bd 99e3 673d
00000070: a1c9 e73d 9a16 40ba 7249 1abb c924 4d3d
0.040208437 0.004803392 -0.0017612226 0.0025045336 0.024327865 0.0026578652 0.015681831 -0.008179452
0.013384097 -0.04740204 0.048898242 0.06676169 -0.016741034 0.0052523776 0.014398325 -0.014940464
0.07241621 -0.005162208 -0.006695114 -0.09016915 -0.1752198 0.0747581 -0.024331728 0.0030100793
0.004018423 0.045039408 -0.03139354 0.05661354 0.113177545 -0.00073275866 -0.0023542312 0.05008391
