notebooks/best_model.pth (torch, 30455 bytes, 7 tensors)

network.0.weight f4 [64, 5]
0	0x3ebec404	0.37258923
1	0xbec6119f	-0.3868532
2	0x3f4ddf5f	0.8041896
3	0x4039782d	2.89796
4	0x3f2ac3bf	0.66704935
5	0xbe91cdcc	-0.28477323
6	0x3e85f41a	0.26162797
7	0xbe89bb60	-0.26900768
8	0xbfd30853	-1.6486915
9	0xc012103a	-2.2822404
10	0xbd60efba	-0.05491612
11	0xbe82d9ed	-0.2555689
12	0xbe6e886e	-0.23294231
13	0xbdc95f43	-0.09832623
14	0x3d25a31e	0.040438764
15	0xbca9f5b3	-0.020747041
16	0x3cff5cea	0.031172235
17	0xbefa14ff	-0.48844144
18	0xc028f4c8	-2.6399403
19	0xc0301d40	-2.7517853
20	0x3e3b8ec2	0.18316177
21	0x3d796768	0.06088963
22	0x3f142211	0.5786448
23	0x4021a98c	2.5259733
24	0x40014711	2.0199625
25	0x3e1263c2	0.14295867
26	0xbddff29a	-0.109349445
27	0xbd8ac43f	-0.06775712
28	0x402ed2df	2.7316206
29	0x3fbc66eb	1.4718908
30	0xbe908012	-0.2822271
31	0xbeda1ba3	-0.4259921
32	0xbed3b11d	-0.41346064
33	0xbd55fe19	-0.05224428
34	0xbe941753	-0.28924045
35	0xbe8ec3da	-0.27883798
36	0xbe0d6ee7	-0.13811837
37	0x3e67a3bd	0.22621055
38	0x3ec3efe2	0.38268954
39	0xbdd03af0	-0.101674914
40	0xbebd0803	-0.36920175
41	0xbec98e6f	-0.3936648
42	0xbbdb1e73	-0.0066869794
43	0x3ec56ff8	0.38561988
44	0x3eba0094	0.36328566
45	0x3e7ea262	0.24866632
46	0xbe857176	-0.26063126
47	0x3ef6c6eb	0.48198637
48	0x400ec0f9	2.230528
49	0x3f50a5b6	0.81502855
50	0xbe8d996e	-0.2765612
51	0x3e8e185c	0.2775296
52	0x3ccbd2a1	0.02488071
53	0xc0172c73	-2.362088
54	0xbff36411	-1.9014913
55	0x3e397c53	0.18113832
56	0xbe4bd63f	-0.19905947
57	0x3f46cc8d	0.7765587
58	0x401e5b21	2.474312
59	0x3f859db1	1.0438749
60	0xbe16dbc4	-0.14732271
61	0x3e395fc3	0.18102936
62	0x3f1825bf	0.59432596
63	0x400cb8ae	2.198772
64	0x401eebb3	2.483136
65	0x3da2c48a	0.07947643
66	0xbeda0e75	-0.42589155
67	0xbc9b768b	-0.018977424
68	0x3d2e1d9c	0.042508706
69	0xbe12dc16	-0.14341769
70	0xbc40d4bb	-0.011769469
71	0x3c90f461	0.017694654
72	0x3e7fce4c	0.2498104
73	0x4024068c	2.5628996
74	0x4009dc2a	2.1540627
75	0xbd4e62ac	-0.05038707
76	0x3dde6a24	0.108600885
77	0x3f30b48a	0.6902548
78	0x400ea1c7	2.228624
79	0x400ac640	2.1683502
80	0x3ec9a136	0.39380807
81	0xbee1f934	-0.4413544
82	0x3f533ea8	0.8251748
83	0x4026a621	2.6038897
84	0x3f2e038a	0.6797415
85	0xbeaecc0d	-0.34140053
86	0x3e174908	0.14773953
87	0x3e899b39	0.26876238
88	0xbdc0971e	-0.09403823
89	0x3d88de60	0.0668304
90	0xbd97f32b	-0.074194275
91	0xbea78182	-0.32715994
92	0x3e4463ef	0.19178747
93	0xbdc5f559	-0.09665937
94	0x3e7af8f4	0.2450903
95	0xbea8d0c2	-0.3297177
96	0x3dcd7c6c	0.10033497
97	0x3e690641	0.22756292
98	0xbde2a3c9	-0.11066396
99	0xbdcb4e69	-0.09927065
100	0x3a7be7ff	0.000960946
101	0xbb3d16c6	-0.0028852685
102	0x3f184f3a	0.5949589
103	0x4058d9f9	3.388304
104	0x4020fec5	2.51555
105	0x3e53435a	0.20631161
106	0xbe8014fe	-0.25016016
107	0x3f6c2359	0.92241436
108	0x400b64b4	2.1780214
109	0x3f9e3baf	1.2361964
110	0x3d4de89d	0.050270665
111	0xbce3be41	-0.027800681
112	0xbdf95849	-0.12175042
113	0x403041cc	2.754016
114	0x3fb8382a	1.439214
115	0xbccc75a8	-0.024958447
116	0xbed56234	-0.41676486
117	0x3e64a004	0.22326666
118	0xbe2da2f6	-0.16956696
119	0x3eca1427	0.394685
120	0xbe948548	-0.29007936
121	0x3e862a15	0.2620398
122	0xbef8b658	-0.48576617
123	0xbfb8fcbd	-1.445213
124	0xc0223f21	-2.535103
125	0xbe952326	-0.2912838
126	0xbeb0c58d	-0.3452572
127	0xbd17818d	-0.036988784
128	0x3ed3e10e	0.4138264
129	0xbd76960b	-0.060201686
130	0x3db95243	0.09048893
131	0xbe51b605	-0.20479591
132	0xbc80deb9	-0.015731202
133	0x3e6acf0a	0.22930542
134	0x3ed5e5bc	0.41776836
135	0xbdb2bc38	-0.08727306
136	0x3dfa5d7d	0.12224863
137	0xbee591d7	-0.4483783
138	0x3fdbcb5e	1.7171438
139	0x3fa3bb9f	1.2791632
140	0x3e92c54f	0.2866616
141	0xbe934bc3	-0.2876874
142	0x3f8232e2	1.0171778
143	0x40417512	3.0227704
144	0x3fba1f13	1.4540733
145	0x3eac318e	0.33631557
146	0xbea57ca8	-0.32321668
147	0x3f591d64	0.8481047
148	0x403c0360	2.937706
149	0x3f573cb3	0.84076995
150	0x3e47b70c	0.1950342
151	0xbec262e7	-0.37966082
152	0xbeb5c72f	-0.35503528
153	0xbd4a31de	-0.049363963
154	0x3e1dc9b5	0.15408976
155	0xbe40968c	-0.18807429
156	0x3e422703	0.18960194
157	0xbf8e5c96	-1.1122005
158	0xbfacdb07	-1.3504342
159	0xc02dc32a	-2.7150369
160	0x3e5700d8	0.20996416
161	0xbdf1e562	-0.118113294
162	0x3e78a4ae	0.2428157
163	0x4008cd33	2.1375244
164	0x3fbf249c	1.4933047
165	0xbeb8febb	-0.36131844
166	0x3e3697a4	0.17831284
167	0xbe319fc7	-0.17346106
168	0xbec74b2c	-0.3892454
169	0xbe6d4a3f	-0.23172854
170	0xbe52592c	-0.20541829
171	0x3e71f98b	0.2363035
172	0xbf82b566	-1.0211608
173	0xbfe8ea83	-1.8196567
174	0xc00ad493	-2.1692245
175	0xbd6a9b91	-0.057277266
176	0x3d806b9b	0.06270524
177	0xbeb5d901	-0.35517123
178	0xc036db19	-2.8571227
179	0xc0329309	-2.7902243
180	0x3e682645	0.22670849
181	0xbe8fdf86	-0.28100222
182	0x3f55cbd3	0.83514136
183	0x4023d41c	2.5598211
184	0x3f80d00f	1.0063494
185	0xbaffe0c7	-0.0019521945
186	0x3e2be68d	0.16787167
187	0x3e695676	0.22786888
188	0x4008db71	2.1383936
189	0x401166b4	2.2718935
190	0xbcbb997c	-0.022900335
191	0xbe596302	-0.21229175
192	0xbe2ce624	-0.16884667
193	0xbc1fea28	-0.009760417
194	0x3e84a5ca	0.25907737
195	0x3dcd94db	0.100381576
196	0xbdf1a170	-0.1179837
197	0x3f39d757	0.7259421
198	0x40204064	2.50393
199	0x3faa5194	1.3306146
200	0xbdb6d10b	-0.089265905
201	0x3db244de	0.087045416
202	0xbdf003a9	-0.11719448
203	0x3fb30ee6	1.3988922
204	0x4020587c	2.5054007
205	0xbc48e3ba	-0.0122613255
206	0x3ceea4bc	0.029131286
207	0x3e2b2aaf	0.16715501
208	0x40058a9b	2.0865848
209	0x3f8941c1	1.0723191
210	0x3e8e5a35	0.27803198
211	0xbea5df32	-0.32396847
212	0x3efdb3d7	0.4955127
213	0x4012d305	2.2941296
214	0x3f14a8be	0.5806998
215	0x3ea7ebce	0.32797092
216	0xbe9cf576	-0.30656022
217	0x3f0ecfde	0.5578593
218	0x404562c0	3.0841522
219	0x3f6230c5	0.88355666
220	0xbd98c946	-0.07460265
221	0x3db493ce	0.08817254
222	0xbdb76285	-0.08954338
223	0x40115ff9	2.2714827
224	0x3fe59ddf	1.7938803
225	0xbe1644a1	-0.14674617
226	0xbe98dbb1	-0.2985511
227	0x3edc912d	0.4307951
228	0x3e9e725f	0.30946633
229	0x3ee16965	0.44025722
230	0x3d5b7137	0.053574767
231	0xbd54245e	-0.051792495
232	0x3e1a4cc8	0.15068352
233	0x4025723d	2.5850976
234	0x3f89aee6	1.07565
235	0x3cfc917e	0.030831095
236	0x3debd590	0.11515343
237	0xbddfc134	-0.109255224
238	0x4011b0b4	2.27641
239	0x3f9e3d3d	1.2362438
240	0xbec9d29d	-0.39418498
241	0xbd989ef4	-0.07452193
242	0x3e9861b9	0.29762056
243	0xbd9614a7	-0.07328158
244	0xbe4a55b8	-0.19759262
245	0x3e8677e4	0.26263344
246	0xbe8b4088	-0.2719767
247	0x3f1fbec4	0.6240046
248	0x402459f3	2.56799
249	0x3f3ddd83	0.74166125
250	0x3d877fbb	0.066161595
251	0xbd139962	-0.03603495
252	0x3f3b2cf9	0.731155
253	0x403c7ff5	2.9453099
254	0x3fd691c0	1.6763229
255	0x3db928b3	0.09040966

network.0.bias f4 [64]
0	0xbdec4923	-0.11537387
1	0x3f53d206	0.82742345
2	0xbe012cea	-0.1261479
3	0x3f53aa36	0.82681596
4	0xbf94aec9	-1.161584
5	0xbe985f96	-0.29760426
6	0xbe29cd66	-0.1658226
7	0xbe9b5025	-0.30334583
8	0xbd86a169	-0.06573755
9	0xbefe4b83	-0.49666986
10	0x3e961d07	0.2931902
11	0xbe360c64	-0.17778164
12	0xbf10c302	-0.5654756
13	0x3e24b047	0.1608287
14	0xbf8ed4cb	-1.1158689
15	0xbf956985	-1.1672827
16	0xbebb24e1	-0.36551574
17	0x3eb9d592	0.36295754
18	0x3e826624	0.25468552
19	0x3ed8f676	0.42375535
20	0xbfb57614	-1.417666
21	0xbe24b564	-0.1608482
22	0xbf96adbd	-1.1771771
23	0x3ea0d08e	0.31409115
24	0x3f17c760	0.592886
25	0x3ec55f3c	0.3854922
26	0xbed8ca82	-0.42342
27	0xbf632b33	-0.8873779
28	0xbf3df4f2	-0.7420188
29	0xbe525da9	-0.20543541
30	0xbece3a31	-0.40278772
31	0x3f1f9162	0.6233121
32	0xbee48a32	-0.44636685
33	0x3e89e504	0.26932538
34	0x3f6487d4	0.8926976
35	0x3f912181	1.133835
36	0xbdc16644	-0.09443334
37	0xbf1d2c43	-0.61395663
38	0xbe7d6ef0	-0.2474935
39	0xbdc7603e	-0.097351536
40	0xbfa71413	-1.3053001
41	0xbe347db0	-0.17626071
42	0xbe9efda2	-0.3105288
43	0xbf576f6b	-0.84154385
44	0xbe8f0480	-0.2793312
45	0xbc0a22f8	-0.008431189
46	0xbf4013dc	-0.75030303
47	0xbf4307a3	-0.7618353
48	0xbea3da22	-0.3200236
49	0xbf6fec9a	-0.937204
50	0xbf54e2e8	-0.8315873
51	0x3e0a63db	0.13514654
52	0xbf59c094	-0.85059476
53	0xbf63faec	-0.8905475
54	0x3f5d3d94	0.86422086
55	0x3e151d65	0.14561994
56	0x3c4e627c	0.012596723
57	0xbea88220	-0.32911777
58	0xbf990bd0	-1.195673
59	0x3e940866	0.28912657
60	0x3e162379	0.14661969
61	0x3f052e27	0.5202355
62	0xbea18c09	-0.3155215
63	0xbf31eb33	-0.6949951

network.3.weight f4 [64, 64]
0	0x3d7d1db3	0.0617959
1	0xbbc4ce6b	-0.0060060523
2	0x3d143ec0	0.036192656
3	0xbdb1cdb7	-0.08681815
4	0xbd807e1e	-0.06274055
5	0xbd097449	-0.033558164
6	0xbde62708	-0.11237913
7	0x3dbd8e96	0.09255712
8	0xbd8d9a8a	-0.069142416
9	0xbd8b23c6	-0.067939326
10	0xbe1c0b5b	-0.15238707
11	0x3d8ad467	0.06778794
12	0xbd1d5eff	-0.038420673
13	0x3d99a49c	0.075021
14	0xbc3e590c	-0.01161791
15	0xbce99844	-0.028514989
16	0xbd08c961	-0.033395175
17	0x3d46eaac	0.048563644
18	0x3dfb7d60	0.12279773
19	0x3d9b20d2	0.07574619
20	0xbdcd5842	-0.100265995
21	0x3d36fb57	0.04467329
22	0x3d138548	0.03601578
23	0x3dac8eb0	0.08425653
24	0x3ddbe7ee	0.107375965
25	0xbd5d6644	-0.054052606
26	0x3d8473ee	0.06467424
27	0xbe279c89	-0.16368307
28	0xbe064730	-0.13113093
29	0x3d5aa5fa	0.053380944
30	0xbd170b08	-0.036875755
31	0x3db3c79c	0.08778307
32	0xbde64674	-0.112439066
33	0xbd09c5f8	-0.033636063
34	0xbddb5e10	-0.107113004
35	0x3db86d14	0.0900518
36	0xbe0cfaf0	-0.137676
37	0xbd11fae9	-0.035639677
38	0x3c550f60	0.013004154
39	0x3d049f28	0.032378346
40	0x3cca022e	0.024659242
41	0xbe3cb7d3	-0.18429498
42	0xbdeb11b2	-0.114779845
43	0xbdf421ae	-0.119204864
44	0xbdb01c08	-0.085990965
45	0x3cabe908	0.020985141
46	0x3d3ecc60	0.046581626
47	0xbdeb8ecc	-0.11501846
48	0xbcef37e8	-0.029201463
49	0xbd52b117	-0.051438417
50	0xbe35fe93	-0.17772894
51	0xbd424294	-0.047426775
52	0x3da1cf89	0.07900912
53	0x3d4bec8f	0.049786147
54	0x3d50439c	0.050845727
55	0xbdb1e209	-0.08685691
56	0xbd2cda48	-0.042200357
57	0xbdcb7032	-0.09933509
58	0x3d56b3b0	0.052417457
59	0xbcf4f4c8	-0.029901877
60	0x3c602d96	0.013682744
61	0xbcbac565	-0.022799203
62	0x3dcfcf40	0.10146952
63	0xbdf24023	-0.11828639
64	0xbce018e6	-0.027355623
65	0x3ba0ec71	0.0049109985
66	0x3d5d0f28	0.053969532
67	0xbe80b7da	-0.25140268
68	0xbd3e736e	-0.0464968
69	0xbdec22df	-0.11530089
70	0xbda98592	-0.0827743
71	0xbd8bf916	-0.06834619
72	0x3d2e60c0	0.042572737
73	0x3cac0f22	0.02100331
74	0xbd541fa4	-0.051787987
75	0x3df421f6	0.1192054
76	0xbd91886c	-0.071060985
77	0xbd0fa09c	-0.03506528
78	0x3c2efc7c	0.010680314
79	0x3e0843ff	0.13307188
80	0xbdd18e09	-0.10232169
81	0xbdb7bcac	-0.08971533
82	0x3a037a00	0.0005015433
83	0x3d56092c	0.05225484
84	0x3ea185c3	0.31547365
85	0xbd3f2efd	-0.04667567
86	0x3c58af77	0.013225428
87	0xbd52cba0	-0.051463723
88	0xbd8cdcc2	-0.06878044
89	0x3dccf484	0.10007575
90	0xbbef9320	-0.00731124
91	0x3d9fa320	0.077947855
92	0x3dd60884	0.10450843
93	0x3cbacbd9	0.02280228
94	0x3dd81da5	0.10552529
95	0xbdb752c5	-0.08951334
96	0x3bf6d879	0.00753313
97	0xbdb55c78	-0.08855528
98	0xbc84f2dc	-0.016229086
99	0xbe05d634	-0.13069993
100	0xbd8fc2f7	-0.070196085
101	0x3d2e2e7c	0.0425248
102	0xbd20fc80	-0.039303303
103	0x3e06ac74	0.13151723
104	0x3d35cbf0	0.044383943
105	0x3dfd6ea9	0.123746224
106	0x3d505275	0.050859887
107	0x3e2ded53	0.16985063
108	0xbd4be8e2	-0.04978264
109	0xbb832700	-0.004002452
110	0x3c21f97c	0.009886142
111	0xbd00f711	-0.03148562
112	0x3c14f310	0.009091154
113	0x3dfb1110	0.12259114
114	0x3ca86a1a	0.020558406
115	0x3d58d128	0.052933842
116	0x3dddc3fa	0.10828395
117	0x3dbd7969	0.09251673
118	0xbe245f07	-0.16051875
119	0xbea342db	-0.31886944
120	0xbd8615ee	-0.065471515
121	0xbd024a04	-0.031808868
122	0xbd496f57	-0.049178448
123	0x3d83e4e6	0.06440143
124	0x3dc0c9ca	0.09413488
125	0xbe578413	-0.21046476
126	0xbc03b650	-0.008039072
127	0x3d452b55	0.048137028
128	0x3d7f6645	0.06235339
129	0xbc6bcf23	-0.014392647
130	0x3c995468	0.018717006
131	0xbea9f2fc	-0.33193195
132	0x3da457f4	0.08024588
133	0xbbc27bb4	-0.0059351567
134	0x3ddd3b00	0.10802269
135	0x3d58dbf4	0.05294414
136	0xbdd9d416	-0.10636155
137	0xbdae9a25	-0.085254945
138	0x3d8cd91d	0.068773486
139	0x3c2e5883	0.01064122
140	0xbd0c0046	-0.03417995
141	0xbd7be450	-0.061497033
142	0x3e03d8e9	0.12875713
143	0xbd4b8dbd	-0.04969572
144	0x3ca78a22	0.020451609
145	0xbda0cc48	-0.078514636
146	0x3d216384	0.039401546
147	0xbc50ca10	-0.012743488
148	0x3e802ebe	0.2503566
149	0x3da74117	0.08166712
150	0x3cf65a4d	0.030072356
151	0xbd423e74	-0.04742284
152	0xbc238ab6	-0.009981802
153	0x3d9a7f42	0.07543804
154	0x3d610c14	0.05494316
155	0x3d0ce48b	0.034397643
156	0x3e47221a	0.19446602
157	0xbd1f7aa9	-0.038935337
158	0xbd2c7c5e	-0.042110793
159	0xbe03b5e6	-0.12862357
160	0x3b7d7427	0.0038673969
161	0xbe0954bb	-0.13411228
162	0x3c9c4748	0.019076958
163	0xbd92e6ea	-0.071729496
164	0x3a9da082	0.0012025984
165	0xbd11de1e	-0.035612218
166	0xbd860be4	-0.06545237
167	0x3c2bf1e8	0.010494687
168	0x3d3ee9f6	0.04660984
169	0x3e0189b0	0.1265018
170	0xbc589d69	-0.013221123
171	0x3e089120	0.13336611
172	0x3cc8a77b	0.024493923
173	0xbdbf5f46	-0.09344344
174	0xbd1ae377	-0.037814584
175	0xbd508fd9	-0.050918434
176	0xbd456d98	-0.04820022
177	0x3dab352c	0.08359751
178	0x3dffbbda	0.12487002
179	0xbdd8ce18	-0.10586184
180	0x3e6682ef	0.22510885
181	0x3cc2c034	0.02377329
182	0xbca8286b	-0.020527085
183	0xbeb58288	-0.3545115
184	0x3c9f5dd0	0.019453913
185	0x3c742f70	0.014903888
186	0x3e153ca3	0.14573912
187	0x3db94fb6	0.09048407
188	0x3dbbee46	0.091763064
189	0xbe035198	-0.12824094
190	0x3d2727bc	0.040809378
191	0x3d98be46	0.07458167
192	0xbd13edba	-0.036115386
193	0x3d05f2ff	0.032702442
194	0x3da3e8f8	0.0800342
195	0xbe897770	-0.26848936
196	0x3d89de69	0.067318745
197	0x3de6bd5a	0.11266585
198	0xbbec4000	-0.007209778
199	0xbdd961d6	-0.10614364
200	0x3cb379e0	0.0219087
201	0x3d869326	0.06571035
202	0xbd7cca88	-0.061716586
203	0x3c61804e	0.0137635
204	0x3da56642	0.08076145
205	0x3db4e42a	0.08832581
206	0x3e40e88b	0.18838708
207	0x3de72499	0.11286277
208	0x3c570808	0.013124473
209	0x3dcbce5c	0.09951469
210	0xbd654324	-0.055972233
211	0xbd1a4268	-0.037660986
212	0x3ea4746f	0.32120082
213	0x3e2908ea	0.16507307
214	0x3e194e54	0.14971286
215	0xbce931c8	-0.02846612
216	0xbd65714d	-0.056016255
217	0x3ca1cc58	0.019750759
218	0xbdc4aa2e	-0.09602772
219	0x3c115c77	0.008872143
220	0x3ddafd6f	0.1069287
221	0x3b87ae68	0.004140664
222	0xbdc45b53	-0.09587731
223	0xbd8193e8	-0.06327039
224	0x3bb23d15	0.0054394105
225	0xbdef9550	-0.11698401
226	0xbcb68ff4	-0.02228544
227	0xbe3b2f55	-0.18279774
228	0x3e344065	0.1760269
229	0x3d5f2017	0.054473963
230	0x3d39bb80	0.04534483
231	0xbc48a2db	-0.012245859
232	0x3d666816	0.056251608
233	0x3e0a37f8	0.13497913
234	0x3db24183	0.087039016
235	0xbc4257fe	-0.011861799
236	0x3d1fc699	0.039007757
237	0x3d676438	0.05649206
238	0xbd3001c0	-0.04297042
239	0xbd2b735d	-0.041858066
240	0xbd017c70	-0.031612813
241	0x3d414fa9	0.04719511
242	0xbcff2e57	-0.031150026
243	0x3d96663e	0.0734372
244	0x3d1e6fa2	0.03868068
245	0xbd73b963	-0.05950297
246	0xbe2d8df8	-0.16948688
247	0xbedb54df	-0.4283819
248	0xbd967528	-0.073465645
249	0x3d43c9a0	0.047799706
250	0xbd6fb1ae	-0.058519058
251	0x3cc930c0	0.024559379
252	0x3d8c5f2a	0.068540886
253	0xbe24e822	-0.16104177
254	0x3da00914	0.078142315
255	0x3c5d9f04	0.013526682

network.3.bias f4 [64]
0	0xbd69bb30	-0.05706328
1	0xbf00c91b	-0.5030686
2	0xbece4035	-0.4028336
3	0xbf00f8cf	-0.5037965
4	0xbe84c266	-0.25929564
5	0xbf11b745	-0.5692027
6	0xbf078f46	-0.5295299
7	0xbf0caaa4	-0.54947877
8	0xbf166212	-0.58743393
9	0xbecc3216	-0.39881963
10	0xbedb5ebd	-0.42845717
11	0x3c193a4e	0.00935228
12	0xbf11885b	-0.56848687
13	0x3d581859	0.052757595
14	0xbf2480bd	-0.6425894
15	0xbe1f6b07	-0.15568171
16	0xbeaf4b7d	-0.3423728
17	0xbe42e288	-0.19031727
18	0xbf279cd4	-0.65473676
19	0xbeb5b312	-0.35488182
20	0xbed6def6	-0.4196698
21	0xbde48d7b	-0.11159798
22	0xbde6742c	-0.11252627
23	0xbf10d127	-0.5656914
24	0xbe83d2de	-0.25746816
25	0xbd7d0370	-0.061770856
26	0x3f09ecd0	0.5387697
27	0x3dbda6ef	0.09260356
28	0xbf30cd13	-0.6906292
29	0xbf0680e2	-0.5254041
30	0xbee9fed1	-0.45702222
31	0x3c7384e7	0.014863229
32	0xbdd00201	-0.10156632
33	0xbe82f53f	-0.25577733
34	0xbe611b67	-0.2198311
35	0xbea93e10	-0.33055162
36	0xbf0d92ee	-0.5530232
37	0xbeb3783f	-0.35052678
38	0x3d6b9489	0.0575147
39	0xbed5e43c	-0.41775692
40	0xbdb146f2	-0.0865611
41	0xbf1c2b34	-0.6100342
42	0xbf1ec562	-0.6201993
43	0xbdaaa25e	-0.0833175
44	0xbeff6a1e	-0.49885648
45	0xbf0c8db5	-0.5490373
46	0xbf16634b	-0.5874526
47	0xbf20ec4d	-0.62860566
48	0x3dd8d38b	0.105872236
49	0xbef970da	-0.4871891
50	0xbee4e707	-0.4470751
51	0xbf259cdd	-0.6469248
52	0xbee0ee35	-0.43931738
53	0xbebd8ec9	-0.37023
54	0xbf0aa368	-0.5415559
55	0xbdf7bb18	-0.12096232
56	0x3eee3311	0.46523336
57	0xbef75bac	-0.48312128
58	0xbbf4b009	-0.007467274
59	0xbeae4b4b	-0.3404182
60	0x3f0ed73b	0.55797166
61	0xbea58661	-0.32329085
62	0xbf09f527	-0.538897
63	0xbebbfb39	-0.36715105

network.6.weight f4 [32, 64]
0	0x3b7b86bf	0.0038379875
1	0x3d0b9267	0.034075167
2	0x3e29333b	0.16523449
3	0x3e04c9d7	0.12967621
4	0x3e6efd74	0.23338872
5	0x3d80c8d3	0.06288304
6	0x3dc61490	0.09671891
7	0x3dd89fcf	0.10577356
8	0x3caa41c4	0.020783313
9	0x3c5992b5	0.013279607
10	0x3e93d5b5	0.28873983
11	0xbdb22370	-0.086981654
12	0xbcb2d96a	-0.021832187
13	0x3e12f15b	0.14349882
14	0x3d9c64e1	0.076364286
15	0xbd16234c	-0.036654755
16	0x3d554c85	0.052074928
17	0x3e41e6b9	0.1893567
18	0x3e9c6686	0.3054697
19	0xbd6073e6	-0.05479803
20	0x3e7c8608	0.24660504
21	0x3ded8477	0.11597531
22	0xbda793ca	-0.081824854
23	0x3e8de990	0.27717257
24	0x3e314699	0.17312087
25	0xbe028a1e	-0.12748
26	0x3cc73a39	0.024319755
27	0x3c1d5f42	0.009605231
28	0x3e3a1586	0.18172273
29	0x3e382f19	0.17986716
30	0x3e02be32	0.12767866
31	0xbd7a27b2	-0.061073013
32	0x3d4f346c	0.050587103
33	0x3d8ed0dc	0.069734305
34	0xbd5434de	-0.05180823
35	0xbd476d9c	-0.048688516
36	0x3d59e803	0.05319978
37	0xbd7f2b21	-0.06229699
38	0xbd033594	-0.032033518
39	0x3db9500c	0.09048471
40	0x3d5a3495	0.053272802
41	0x3e703a03	0.2345963
42	0x3e2a7a11	0.16648127
43	0xbd53e30a	-0.051730193
44	0x3d5aa614	0.05338104
45	0x3dc1be6d	0.09460149
46	0xbd89628b	-0.06708249
47	0x3d9a17cc	0.0752407
48	0x3e4a009f	0.197268
49	0x3e1351ed	0.14386721
50	0x3e13fc68	0.14451754
51	0x3dab00f7	0.083497934
52	0x3dd557a4	0.10417107
53	0x3ddd0459	0.10791845
54	0x3e34273a	0.17593089
55	0x3e5afa7f	0.21384619
56	0xbdc6ea50	-0.0971266
57	0x3dc93477	0.0982446
58	0xbda68396	-0.08130567
59	0x3e2f06ac	0.17092389
60	0xbdff0886	-0.124527976
61	0x3daf57ea	0.0856169
62	0x3de42493	0.111397885
63	0x3cc07203	0.023491865
64	0xbd7a71bd	-0.061143626
65	0xbdd2d7c0	-0.10295057
66	0xbbec71b6	-0.007215704
67	0xbde06b4f	-0.109579675
68	0xbc959d7c	-0.018263571
69	0x3c6811a2	0.01416436
70	0xbd86a8ea	-0.065751866
71	0x3dc3e646	0.095654055
72	0xbccef37e	-0.02526259
73	0x3d823ba4	0.06359032
74	0xbe0aeab6	-0.13566098
75	0x3d42147c	0.047382817
76	0xbd754dbc	-0.059888586
77	0xbdff07f5	-0.124526896
78	0xbd3ba4e9	-0.045811567
79	0xbdfbff11	-0.123045094
80	0xbd67bfd5	-0.05657943
81	0xbe4c9296	-0.19977793
82	0x3d476163	0.04867686
83	0xbe20fb82	-0.15720943
84	0xbd34c99f	-0.044137593
85	0xbc95dfd3	-0.018295204
86	0xbca0af85	-0.019614944
87	0xbc326e87	-0.01089061
88	0xbd9b6f16	-0.07589547
89	0x3c57e44c	0.013176989
90	0x3d4d9b31	0.05019683
91	0xbe12b598	-0.14327085
92	0x3d9feb82	0.078085914
93	0x3c8564df	0.01628345
94	0xbd9aee4a	-0.07564981
95	0x3ca828e8	0.020527318
96	0x3c10841a	0.008820558
97	0xbdff5602	-0.124675766
98	0xbe326814	-0.17422515
99	0xbcca3eb4	-0.024688102
100	0x3d93d812	0.072189465
101	0xbe088ca9	-0.13334908
102	0x3d912a79	0.07088179
103	0xbd631340	-0.05543828
104	0x3bbe5932	0.0058089728
105	0xbe0f7a34	-0.1401146
106	0x3d8e86f9	0.06959338
107	0x3b892bbf	0.004186123
108	0x3cd4f60f	0.025996236
109	0xbdc777f2	-0.09739675
110	0x3d19d03d	0.037552107
111	0x3d783b5a	0.060603477
112	0x3e94e0dc	0.29077804
113	0xbe2732b0	-0.1632793
114	0x3cdb8fdc	0.026801996
115	0x3d8a1143	0.06741574
116	0x3c23004e	0.009948803
117	0x3d797301	0.060900692
118	0xbceeb476	-0.029138785
119	0x3c6ae97d	0.0143378945
120	0x3dad6c63	0.08467939
121	0x3bc69d62	0.006061242
122	0xbdcee04d	-0.10101376
123	0xbd3b4d51	-0.04572803
124	0xbcc12a46	-0.023579728
125	0xbde9a574	-0.11408511
126	0xbddefb12	-0.108877316
127	0x3d082d5f	0.033246394
128	0x3d6f56c4	0.058432356
129	0x3e028bf7	0.12748705
130	0xbd3242e3	-0.04352082
131	0x3b6b7000	0.0035924911
132	0x3eab8631	0.33500817
133	0x3e2e3dd7	0.17015778
134	0x3da75a7c	0.081715554
135	0xbc675f97	-0.0141219115
136	0xbba5ec11	-0.0050635417
137	0xbd7e1d2c	-0.06203954
138	0x3e28ac6c	0.16472024
139	0x3dce8559	0.10084028
140	0xbd511f4d	-0.05105524
141	0x3dd27e82	0.10278036
142	0x3e508530	0.20363307
143	0x3db4751f	0.088114016
144	0x3dcdd71c	0.100507945
145	0x3e0d8a5d	0.13822313
146	0x3e7144d3	0.2356141
147	0x3dd6fd62	0.10497548
148	0x3d6dca52	0.058054276
149	0xbe4c546e	-0.19954082
150	0xbd4d196a	-0.050073065
151	0x3e509bf3	0.2037199
152	0x3d820141	0.063478954
153	0x3d960503	0.07325175
154	0xbe5259bb	-0.20542042
155	0x3d24de7f	0.04025125
156	0x3e3959e8	0.18100703
157	0x3d17b46c	0.037037298
158	0x3da31b14	0.07964149
159	0x3c972bdd	0.018453533
160	0x3e86b866	0.2631256
161	0x3d9e8640	0.0774045
162	0x3e14ead5	0.14542706
163	0xbe20435a	-0.15650693
164	0x3e4b3327	0.19843732
165	0xbd0ee44f	-0.0348857
166	0xbd2ebec0	-0.042662382
167	0x3db75438	0.0895161
168	0x3e7302db	0.23731558
169	0x3e10c362	0.14137033
170	0x3e61cd03	0.22050862
171	0xbde40ee3	-0.11135652
172	0xbd927b90	-0.07152474
173	0x3df917c3	0.12162735
174	0x3dc3f8b3	0.0956892
175	0xbc21ea5d	-0.009882537
176	0x3e350685	0.17678268
177	0xbdc31c3c	-0.0952687
178	0x3a7335eb	0.0009277749
179	0x3e3d3bcf	0.18479846
180	0x3e8d3da0	0.2758608
181	0x3e1c07cb	0.15237348
182	0xbcaf5c52	-0.021406326
183	0x3e241fc9	0.1602775
184	0xbe731963	-0.23740153
185	0x3d26348a	0.04057745
186	0xbde00ada	-0.1093957
187	0x3ca4b06c	0.020103656
188	0xbe70e1cc	-0.23523635
189	0x3c8162dc	0.01579421
190	0x3d91acb0	0.07113016
191	0x3cc1881c	0.023624472
192	0xbdb2f167	-0.0873745
193	0x3da49a7d	0.08037279
194	0x3d19aa4c	0.037515923
195	0xbbd56c9f	-0.006513193
196	0xbdfcadaf	-0.12337815
197	0xbd40884f	-0.047004994
198	0x3db58d61	0.088648565
199	0xbe12edf0	-0.14348578
200	0xbda156a6	-0.07877855
201	0xbdd47858	-0.10374516
202	0xbdce529e	-0.10074352
203	0x3d7cd408	0.061725646
204	0xbdb9e8a7	-0.09077578
205	0x3cc10b03	0.023564821
206	0x3d9938e4	0.07481554
207	0xbe3cd423	-0.18440299
208	0xbd50c361	-0.050967578
209	0xbdce696d	-0.10078702
210	0x3cb4e2a8	0.022080734
211	0xbda97e0c	-0.08275995
212	0xbd7f38a6	-0.062309884
213	0x3dcbee86	0.09957604
214	0xbdc32842	-0.09529163
215	0xbdaa892d	-0.083269455
216	0xbdddbb2a	-0.10826714
217	0x3d8f2c0d	0.06990824
218	0x3e2dc5e4	0.1697002
219	0x3de2cd1a	0.11074276
220	0x3d5db6b9	0.054129336
221	0xbe443f40	-0.19164753
222	0xbc52380d	-0.012830746
223	0x3db2c13a	0.08728261
224	0x3e2709eb	0.16312377
225	0xbd698a74	-0.057016805
226	0xbe0510ad	-0.12994643
227	0x3cc6d845	0.024273047
228	0x3c9b02c6	0.01892222
229	0xbca1cfe0	-0.019752443
230	0x3d6f3550	0.058400452
231	0xbda5da11	-0.080982335
232	0x3d90b678	0.07066053
233	0xbc7d8708	-0.0154740885
234	0xbdb5f9f3	-0.08885565
235	0x3e194fac	0.14971799
236	0xbe81403e	-0.25244325
237	0x3db05300	0.08609581
238	0xbd31ef0d	-0.043440867
239	0xbd54be71	-0.05193943
240	0x3e4d7106	0.20062646
241	0x3e024453	0.12721376
242	0x3c848a3e	0.0161792
243	0x3c2ee10b	0.010673772
244	0x3c35f1f9	0.011105054
245	0x3d322c99	0.043499563
246	0x3d409efb	0.047026616
247	0xbe144775	-0.14480384
248	0x3e490ec1	0.19634534
249	0xbdd86bcc	-0.105674356
250	0x3db2adb9	0.08724541
251	0xbdd4c191	-0.10388482
252	0x3de61080	0.11233616
253	0xbe30e564	-0.17275006
254	0x3c37ab3d	0.01121026
255	0xbd0ad84c	-0.033897683

network.6.bias f4 [32]
0	0x3cd588bf	0.026066182
1	0x3c216568	0.009850837
2	0x3d620012	0.05517585
3	0x3eaa6d0a	0.33286315
4	0x3d851ed5	0.06500021
5	0xbb140bc9	-0.0022590032
6	0xbde267b5	-0.11054937
7	0x3d3597a4	0.04433407
8	0xbdba35e7	-0.09092312
9	0xbcbcf3cc	-0.02306547
10	0xbcefa96a	-0.029255588
11	0xbdc4c2ab	-0.096074425
12	0x3d02e401	0.031955723
13	0xbd735bb3	-0.059413623
14	0xbe1b9120	-0.1519208
15	0xbdf42f5b	-0.11923095
16	0xbdcd111e	-0.100130305
17	0x3d3f373d	0.04668354
18	0xbd76dfd7	-0.060272064
19	0xbd967277	-0.07346051
20	0xbd95b8e4	-0.07310656
21	0xbd82be83	-0.063839935
22	0x3e74a7cc	0.23892134
23	0x3d820945	0.06349424
24	0xbde728f6	-0.112871096
25	0xbda7441b	-0.08167287
26	0xbae4c4e2	-0.0017453695
27	0xbd94a60b	-0.07258233
28	0x3cd2465c	0.025668316
29	0xbe2792d5	-0.16364606
30	0x3e0f1971	0.13974549
31	0x3bc2b9ff	0.0059425826

network.9.weight f4 [1, 32]
0	0x3dd91087	0.105988555
1	0xbd195ada	-0.03744016
2	0x3e4a3dc9	0.19750132
3	0xbe830aed	-0.25594273
4	0x3e55871d	0.20852323
5	0xbd001672	-0.031271406
6	0x3e171b8a	0.14756599
7	0x3dedeeed	0.11617837
8	0xbdd91164	-0.1059902
9	0x3e303378	0.17207134
10	0x3e371848	0.17880356
11	0x3e679e48	0.22618973
12	0x3e010fb6	0.1260365
13	0x3e007be7	0.12547265
14	0x3e18a62c	0.1490714
15	0x3e27f1b0	0.1640079
16	0x3dc349ac	0.09535536
17	0x3e1a8b4e	0.15092203
18	0x3e2b4436	0.16725239
19	0x3dd97ba7	0.10619288
20	0x3e008d3a	0.12553874
21	0x3dbfb1ac	0.0936006
22	0xbdfbc3d2	-0.12293209
23	0xbdac1cc4	-0.08403924
24	0x3e1f10c7	0.15533744
25	0x3cb988e3	0.02264828
26	0xbe12a486	-0.14320573
27	0x3e03e34c	0.12879676
28	0x3df6e428	0.12055236
29	0x3cb2183f	0.021740077
30	0xbe240cc8	-0.160205
31	0xbc08522f	-0.008320375
